…
[tpu-job]  "num_hidden_layers": 48,
[tpu-job]  "pad_token_id": 1,
[tpu-job]  "position_embedding_type": "rotary",
[tpu-job]  "token_dropout": true,
[tpu-job]  "torch_dtype": "bfloat16",
[tpu-job]  "transformers_version": "4.40.0.dev0",
[tpu-job]  "use_cache": true,
[tpu-job]  "vocab_list": null,
[tpu-job]  "vocab_size": 33
[tpu-job]}
[tpu-job]
[tpu-job]INFO:__main__:Loaded model: facebook/esm2_t48_15B_UR50D
[tpu-job]INFO:__main__:Model parameters: <bound method ModuleUtilsMixin.num_parameters of EsmForMaskedLM(
[tpu-job]  (esm): EsmModel(
[tpu-job]    (embeddings): EsmEmbeddings(
[tpu-job]      (word_embeddings): Embedding(33, 5120, padding_idx=1)
[tpu-job]      (dropout): Dropout(p=0.0, inplace=False)
[tpu-job]      (position_embeddings): Embedding(1026, 5120, padding_idx=1)
[tpu-job]    )
[tpu-job]    (encoder): EsmEncoder(
[tpu-job]      (layer): ModuleList(
[tpu-job]        (0-47): 48 x EsmLayer(
[tpu-job]          (attention): EsmAttention(
[tpu-job]            (self): EsmSelfAttention(
[tpu-job]              (query): Linear(in_features=5120, out_features=5120, bias=True)
[tpu-job]              (key): Linear(in_features=5120, out_features=5120, bias=True)
[tpu-job]              (value): Linear(in_features=5120, out_features=5120, bias=True)
[tpu-job]              (dropout): Dropout(p=0.0, inplace=False)
[tpu-job]              (rotary_embeddings): RotaryEmbedding()
[tpu-job]            )
[tpu-job]            (output): EsmSelfOutput(
[tpu-job]              (dense): Linear(in_features=5120, out_features=5120, bias=True)
[tpu-job]              (dropout): Dropout(p=0.0, inplace=False)
[tpu-job]            )
[tpu-job]            (LayerNorm): LayerNorm((5120,), eps=1e-05, elementwise_affine=True)
[tpu-job]          )
[tpu-job]          (intermediate): EsmIntermediate(
[tpu-job]            (dense): Linear(in_features=5120, out_features=20480, bias=True)
[tpu-job]          )
[tpu-job]          (output): EsmOutput(
[tpu-job]            (dense): Linear(in_features=20480, out_features=5120, bias=True)
[tpu-job]            (dropout): Dropout(p=0.0, inplace=False)
[tpu-job]          )
[tpu-job]          (LayerNorm): LayerNorm((5120,), eps=1e-05, elementwise_affine=True)
[tpu-job]        )
[tpu-job]      )
[tpu-job]      (emb_layer_norm_after): LayerNorm((5120,), eps=1e-05, elementwise_affine=True)
[tpu-job]    )
[tpu-job]    (contact_head): EsmContactPredictionHead(
[tpu-job]      (regression): Linear(in_features=1920, out_features=1, bias=True)
[tpu-job]      (activation): Sigmoid()
[tpu-job]    )
[tpu-job]  )
[tpu-job]  (lm_head): EsmLMHead(
[tpu-job]    (dense): Linear(in_features=5120, out_features=5120, bias=True)
[tpu-job]    (layer_norm): LayerNorm((5120,), eps=1e-05, elementwise_affine=True)
[tpu-job]    (decoder): Linear(in_features=5120, out_features=33, bias=False)
[tpu-job]  )
[tpu-job])>
[tpu-job]INFO:__main__:Loaded model: facebook/esm2_t48_15B_UR50D
[tpu-job]INFO:__main__:Model parameters: <bound method ModuleUtilsMixin.num_parameters of EsmForMaskedLM(
[tpu-job]  (esm): EsmModel(
[tpu-job]    (embeddings): EsmEmbeddings(
[tpu-job]      (word_embeddings): Embedding(33, 5120, padding_idx=1)
[tpu-job]      (dropout): Dropout(p=0.0, inplace=False)
[tpu-job]      (position_embeddings): Embedding(1026, 5120, padding_idx=1)
[tpu-job]    )
[tpu-job]    (encoder): EsmEncoder(
[tpu-job]      (layer): ModuleList(
[tpu-job]        (0-47): 48 x EsmLayer(
[tpu-job]          (attention): EsmAttention(
[tpu-job]            (self): EsmSelfAttention(
[tpu-job]              (query): Linear(in_features=5120, out_features=5120, bias=True)
[tpu-job]              (key): Linear(in_features=5120, out_features=5120, bias=True)
[tpu-job]              (value): Linear(in_features=5120, out_features=5120, bias=True)
[tpu-job]              (dropout): Dropout(p=0.0, inplace=False)
[tpu-job]              (rotary_embeddings): RotaryEmbedding()
[tpu-job]            )
[tpu-job]            (output): EsmSelfOutput(
[tpu-job]              (dense): Linear(in_features=5120, out_features=5120, bias=True)
[tpu-job]              (dropout): Dropout(p=0.0, inplace=False)
[tpu-job]            )
[tpu-job]            (LayerNorm): LayerNorm((5120,), eps=1e-05, elementwise_affine=True)
[tpu-job]          )
[tpu-job]          (intermediate): EsmIntermediate(
[tpu-job]            (dense): Linear(in_features=5120, out_features=20480, bias=True)
[tpu-job]          )
[tpu-job]          (output): EsmOutput(
[tpu-job]            (dense): Linear(in_features=20480, out_features=5120, bias=True)
[tpu-job]            (dropout): Dropout(p=0.0, inplace=False)
[tpu-job]          )
[tpu-job]          (LayerNorm): LayerNorm((5120,), eps=1e-05, elementwise_affine=True)
[tpu-job]        )
[tpu-job]      )
[tpu-job]      (emb_layer_norm_after): LayerNorm((5120,), eps=1e-05, elementwise_affine=True)
[tpu-job]    )
[tpu-job]    (contact_head): EsmContactPredictionHead(
[tpu-job]      (regression): Linear(in_features=1920, out_features=1, bias=True)
[tpu-job]      (activation): Sigmoid()
[tpu-job]    )
[tpu-job]  )
[tpu-job]  (lm_head): EsmLMHead(
[tpu-job]    (dense): Linear(in_features=5120, out_features=5120, bias=True)
[tpu-job]    (layer_norm): LayerNorm((5120,), eps=1e-05, elementwise_affine=True)
[tpu-job]    (decoder): Linear(in_features=5120, out_features=33, bias=False)
[tpu-job]  )
[tpu-job])>
[tpu-job]INFO:__main__:Loaded model: facebook/esm2_t48_15B_UR50D
[tpu-job]INFO:__main__:Model parameters: <bound method ModuleUtilsMixin.num_parameters of EsmForMaskedLM(
[tpu-job]  (esm): EsmModel(
[tpu-job]    (embeddings): EsmEmbeddings(
[tpu-job]      (word_embeddings): Embedding(33, 5120, padding_idx=1)
[tpu-job]      (dropout): Dropout(p=0.0, inplace=False)
[tpu-job]      (position_embeddings): Embedding(1026, 5120, padding_idx=1)
[tpu-job]    )
[tpu-job]    (encoder): EsmEncoder(
[tpu-job]      (layer): ModuleList(
[tpu-job]        (0-47): 48 x EsmLayer(
[tpu-job]          (attention): EsmAttention(
[tpu-job]            (self): EsmSelfAttention(
[tpu-job]              (query): Linear(in_features=5120, out_features=5120, bias=True)
[tpu-job]              (key): Linear(in_features=5120, out_features=5120, bias=True)
[tpu-job]              (value): Linear(in_features=5120, out_features=5120, bias=True)
[tpu-job]              (dropout): Dropout(p=0.0, inplace=False)
[tpu-job]              (rotary_embeddings): RotaryEmbedding()
[tpu-job]            )
[tpu-job]            (output): EsmSelfOutput(
[tpu-job]              (dense): Linear(in_features=5120, out_features=5120, bias=True)
[tpu-job]              (dropout): Dropout(p=0.0, inplace=False)
[tpu-job]            )
[tpu-job]            (LayerNorm): LayerNorm((5120,), eps=1e-05, elementwise_affine=True)
[tpu-job]          )
[tpu-job]          (intermediate): EsmIntermediate(
[tpu-job]            (dense): Linear(in_features=5120, out_features=20480, bias=True)
[tpu-job]          )
[tpu-job]          (output): EsmOutput(
[tpu-job]            (dense): Linear(in_features=20480, out_features=5120, bias=True)
[tpu-job]            (dropout): Dropout(p=0.0, inplace=False)
[tpu-job]          )
[tpu-job]          (LayerNorm): LayerNorm((5120,), eps=1e-05, elementwise_affine=True)
[tpu-job]        )
[tpu-job]      )
[tpu-job]      (emb_layer_norm_after): LayerNorm((5120,), eps=1e-05, elementwise_affine=True)
[tpu-job]    )
[tpu-job]    (contact_head): EsmContactPredictionHead(
[tpu-job]      (regression): Linear(in_features=1920, out_features=1, bias=True)
[tpu-job]      (activation): Sigmoid()
[tpu-job]    )
[tpu-job]  )
[tpu-job]  (lm_head): EsmLMHead(
[tpu-job]    (dense): Linear(in_features=5120, out_features=5120, bias=True)
[tpu-job]    (layer_norm): LayerNorm((5120,), eps=1e-05, elementwise_affine=True)
[tpu-job]    (decoder): Linear(in_features=5120, out_features=33, bias=False)
[tpu-job]  )
[tpu-job])>
[tpu-job]INFO:__main__:Loaded model: facebook/esm2_t48_15B_UR50D
[tpu-job]INFO:__main__:Model parameters: <bound method ModuleUtilsMixin.num_parameters of EsmForMaskedLM(
[tpu-job]  (esm): EsmModel(
[tpu-job]    (embeddings): EsmEmbeddings(
[tpu-job]      (word_embeddings): Embedding(33, 5120, padding_idx=1)
[tpu-job]      (dropout): Dropout(p=0.0, inplace=False)
[tpu-job]      (position_embeddings): Embedding(1026, 5120, padding_idx=1)
[tpu-job]    )
[tpu-job]    (encoder): EsmEncoder(
[tpu-job]      (layer): ModuleList(
[tpu-job]        (0-47): 48 x EsmLayer(
[tpu-job]          (attention): EsmAttention(
[tpu-job]            (self): EsmSelfAttention(
[tpu-job]              (query): Linear(in_features=5120, out_features=5120, bias=True)
[tpu-job]              (key): Linear(in_features=5120, out_features=5120, bias=True)
[tpu-job]              (value): Linear(in_features=5120, out_features=5120, bias=True)
[tpu-job]              (dropout): Dropout(p=0.0, inplace=False)
[tpu-job]              (rotary_embeddings): RotaryEmbedding()
[tpu-job]            )
[tpu-job]            (output): EsmSelfOutput(
[tpu-job]              (dense): Linear(in_features=5120, out_features=5120, bias=True)
[tpu-job]              (dropout): Dropout(p=0.0, inplace=False)
[tpu-job]            )
[tpu-job]            (LayerNorm): LayerNorm((5120,), eps=1e-05, elementwise_affine=True)
[tpu-job]          )
[tpu-job]          (intermediate): EsmIntermediate(
[tpu-job]            (dense): Linear(in_features=5120, out_features=20480, bias=True)
[tpu-job]          )
[tpu-job]          (output): EsmOutput(
[tpu-job]            (dense): Linear(in_features=20480, out_features=5120, bias=True)
[tpu-job]            (dropout): Dropout(p=0.0, inplace=False)
[tpu-job]          )
[tpu-job]          (LayerNorm): LayerNorm((5120,), eps=1e-05, elementwise_affine=True)
[tpu-job]        )
[tpu-job]      )
[tpu-job]      (emb_layer_norm_after): LayerNorm((5120,), eps=1e-05, elementwise_affine=True)
[tpu-job]    )
[tpu-job]    (contact_head): EsmContactPredictionHead(
[tpu-job]      (regression): Linear(in_features=1920, out_features=1, bias=True)
[tpu-job]      (activation): Sigmoid()
[tpu-job]    )
[tpu-job]  )
[tpu-job]  (lm_head): EsmLMHead(
[tpu-job]    (dense): Linear(in_features=5120, out_features=5120, bias=True)
[tpu-job]    (layer_norm): LayerNorm((5120,), eps=1e-05, elementwise_affine=True)
[tpu-job]    (decoder): Linear(in_features=5120, out_features=33, bias=False)
[tpu-job]  )
[tpu-job])>
[tpu-job]INFO:__main__:Loaded model: facebook/esm2_t48_15B_UR50D
[tpu-job]INFO:__main__:Model parameters: <bound method ModuleUtilsMixin.num_parameters of EsmForMaskedLM(
[tpu-job]  (esm): EsmModel(
[tpu-job]    (embeddings): EsmEmbeddings(
[tpu-job]      (word_embeddings): Embedding(33, 5120, padding_idx=1)
[tpu-job]      (dropout): Dropout(p=0.0, inplace=False)
[tpu-job]      (position_embeddings): Embedding(1026, 5120, padding_idx=1)
[tpu-job]    )
[tpu-job]    (encoder): EsmEncoder(
[tpu-job]      (layer): ModuleList(
[tpu-job]        (0-47): 48 x EsmLayer(
[tpu-job]          (attention): EsmAttention(
[tpu-job]            (self): EsmSelfAttention(
[tpu-job]              (query): Linear(in_features=5120, out_features=5120, bias=True)
[tpu-job]              (key): Linear(in_features=5120, out_features=5120, bias=True)
[tpu-job]              (value): Linear(in_features=5120, out_features=5120, bias=True)
[tpu-job]              (dropout): Dropout(p=0.0, inplace=False)
[tpu-job]              (rotary_embeddings): RotaryEmbedding()
[tpu-job]            )
[tpu-job]            (output): EsmSelfOutput(
[tpu-job]              (dense): Linear(in_features=5120, out_features=5120, bias=True)
[tpu-job]              (dropout): Dropout(p=0.0, inplace=False)
[tpu-job]            )
[tpu-job]            (LayerNorm): LayerNorm((5120,), eps=1e-05, elementwise_affine=True)
[tpu-job]          )
[tpu-job]          (intermediate): EsmIntermediate(
[tpu-job]            (dense): Linear(in_features=5120, out_features=20480, bias=True)
[tpu-job]          )
[tpu-job]          (output): EsmOutput(
[tpu-job]            (dense): Linear(in_features=20480, out_features=5120, bias=True)
[tpu-job]            (dropout): Dropout(p=0.0, inplace=False)
[tpu-job]          )
[tpu-job]          (LayerNorm): LayerNorm((5120,), eps=1e-05, elementwise_affine=True)
[tpu-job]        )
[tpu-job]      )
[tpu-job]      (emb_layer_norm_after): LayerNorm((5120,), eps=1e-05, elementwise_affine=True)
[tpu-job]    )
[tpu-job]    (contact_head): EsmContactPredictionHead(
[tpu-job]      (regression): Linear(in_features=1920, out_features=1, bias=True)
[tpu-job]      (activation): Sigmoid()
[tpu-job]    )
[tpu-job]  )
[tpu-job]  (lm_head): EsmLMHead(
[tpu-job]    (dense): Linear(in_features=5120, out_features=5120, bias=True)
[tpu-job]    (layer_norm): LayerNorm((5120,), eps=1e-05, elementwise_affine=True)
[tpu-job]    (decoder): Linear(in_features=5120, out_features=33, bias=False)
[tpu-job]  )
[tpu-job])>
[tpu-job]INFO:__main__:Loaded model: facebook/esm2_t48_15B_UR50D
[tpu-job]INFO:__main__:Model parameters: <bound method ModuleUtilsMixin.num_parameters of EsmForMaskedLM(
[tpu-job]  (esm): EsmModel(
[tpu-job]    (embeddings): EsmEmbeddings(
[tpu-job]      (word_embeddings): Embedding(33, 5120, padding_idx=1)
[tpu-job]      (dropout): Dropout(p=0.0, inplace=False)
[tpu-job]      (position_embeddings): Embedding(1026, 5120, padding_idx=1)
[tpu-job]    )
[tpu-job]    (encoder): EsmEncoder(
[tpu-job]      (layer): ModuleList(
[tpu-job]        (0-47): 48 x EsmLayer(
[tpu-job]          (attention): EsmAttention(
[tpu-job]            (self): EsmSelfAttention(
[tpu-job]              (query): Linear(in_features=5120, out_features=5120, bias=True)
[tpu-job]              (key): Linear(in_features=5120, out_features=5120, bias=True)
[tpu-job]              (value): Linear(in_features=5120, out_features=5120, bias=True)
[tpu-job]              (dropout): Dropout(p=0.0, inplace=False)
[tpu-job]              (rotary_embeddings): RotaryEmbedding()
[tpu-job]            )
[tpu-job]            (output): EsmSelfOutput(
[tpu-job]              (dense): Linear(in_features=5120, out_features=5120, bias=True)
[tpu-job]              (dropout): Dropout(p=0.0, inplace=False)
[tpu-job]            )
[tpu-job]            (LayerNorm): LayerNorm((5120,), eps=1e-05, elementwise_affine=True)
[tpu-job]          )
[tpu-job]          (intermediate): EsmIntermediate(
[tpu-job]            (dense): Linear(in_features=5120, out_features=20480, bias=True)
[tpu-job]          )
[tpu-job]          (output): EsmOutput(
[tpu-job]            (dense): Linear(in_features=20480, out_features=5120, bias=True)
[tpu-job]            (dropout): Dropout(p=0.0, inplace=False)
[tpu-job]          )
[tpu-job]          (LayerNorm): LayerNorm((5120,), eps=1e-05, elementwise_affine=True)
[tpu-job]        )
[tpu-job]      )
[tpu-job]      (emb_layer_norm_after): LayerNorm((5120,), eps=1e-05, elementwise_affine=True)
[tpu-job]    )
[tpu-job]    (contact_head): EsmContactPredictionHead(
[tpu-job]      (regression): Linear(in_features=1920, out_features=1, bias=True)
[tpu-job]      (activation): Sigmoid()
[tpu-job]    )
[tpu-job]  )
[tpu-job]  (lm_head): EsmLMHead(
[tpu-job]    (dense): Linear(in_features=5120, out_features=5120, bias=True)
[tpu-job]    (layer_norm): LayerNorm((5120,), eps=1e-05, elementwise_affine=True)
[tpu-job]    (decoder): Linear(in_features=5120, out_features=33, bias=False)
[tpu-job]  )
[tpu-job])>
[tpu-job]INFO:__main__:Loaded model: facebook/esm2_t48_15B_UR50D
[tpu-job]INFO:__main__:Model parameters: <bound method ModuleUtilsMixin.num_parameters of EsmForMaskedLM(
[tpu-job]  (esm): EsmModel(
[tpu-job]    (embeddings): EsmEmbeddings(
[tpu-job]      (word_embeddings): Embedding(33, 5120, padding_idx=1)
[tpu-job]      (dropout): Dropout(p=0.0, inplace=False)
[tpu-job]      (position_embeddings): Embedding(1026, 5120, padding_idx=1)
[tpu-job]    )
[tpu-job]    (encoder): EsmEncoder(
[tpu-job]      (layer): ModuleList(
[tpu-job]        (0-47): 48 x EsmLayer(
[tpu-job]          (attention): EsmAttention(
[tpu-job]            (self): EsmSelfAttention(
[tpu-job]              (query): Linear(in_features=5120, out_features=5120, bias=True)
[tpu-job]              (key): Linear(in_features=5120, out_features=5120, bias=True)
[tpu-job]              (value): Linear(in_features=5120, out_features=5120, bias=True)
[tpu-job]              (dropout): Dropout(p=0.0, inplace=False)
[tpu-job]              (rotary_embeddings): RotaryEmbedding()
[tpu-job]            )
[tpu-job]            (output): EsmSelfOutput(
[tpu-job]              (dense): Linear(in_features=5120, out_features=5120, bias=True)
[tpu-job]              (dropout): Dropout(p=0.0, inplace=False)
[tpu-job]            )
[tpu-job]            (LayerNorm): LayerNorm((5120,), eps=1e-05, elementwise_affine=True)
[tpu-job]          )
[tpu-job]          (intermediate): EsmIntermediate(
[tpu-job]            (dense): Linear(in_features=5120, out_features=20480, bias=True)
[tpu-job]          )
[tpu-job]          (output): EsmOutput(
[tpu-job]            (dense): Linear(in_features=20480, out_features=5120, bias=True)
[tpu-job]            (dropout): Dropout(p=0.0, inplace=False)
[tpu-job]          )
[tpu-job]          (LayerNorm): LayerNorm((5120,), eps=1e-05, elementwise_affine=True)
[tpu-job]        )
[tpu-job]      )
[tpu-job]      (emb_layer_norm_after): LayerNorm((5120,), eps=1e-05, elementwise_affine=True)
[tpu-job]    )
[tpu-job]    (contact_head): EsmContactPredictionHead(
[tpu-job]      (regression): Linear(in_features=1920, out_features=1, bias=True)
[tpu-job]      (activation): Sigmoid()
[tpu-job]    )
[tpu-job]  )
[tpu-job]  (lm_head): EsmLMHead(
[tpu-job]    (dense): Linear(in_features=5120, out_features=5120, bias=True)
[tpu-job]    (layer_norm): LayerNorm((5120,), eps=1e-05, elementwise_affine=True)
[tpu-job]    (decoder): Linear(in_features=5120, out_features=33, bias=False)
[tpu-job]  )
[tpu-job])>
[tpu-job]INFO:__main__:Loaded model: facebook/esm2_t48_15B_UR50D
[tpu-job]INFO:__main__:Model parameters: <bound method ModuleUtilsMixin.num_parameters of EsmForMaskedLM(
[tpu-job]  (esm): EsmModel(
[tpu-job]    (embeddings): EsmEmbeddings(
[tpu-job]      (word_embeddings): Embedding(33, 5120, padding_idx=1)
[tpu-job]      (dropout): Dropout(p=0.0, inplace=False)
[tpu-job]      (position_embeddings): Embedding(1026, 5120, padding_idx=1)
[tpu-job]    )
[tpu-job]    (encoder): EsmEncoder(
[tpu-job]      (layer): ModuleList(
[tpu-job]        (0-47): 48 x EsmLayer(
[tpu-job]          (attention): EsmAttention(
[tpu-job]            (self): EsmSelfAttention(
[tpu-job]              (query): Linear(in_features=5120, out_features=5120, bias=True)
[tpu-job]              (key): Linear(in_features=5120, out_features=5120, bias=True)
[tpu-job]              (value): Linear(in_features=5120, out_features=5120, bias=True)
[tpu-job]              (dropout): Dropout(p=0.0, inplace=False)
[tpu-job]              (rotary_embeddings): RotaryEmbedding()
[tpu-job]            )
[tpu-job]            (output): EsmSelfOutput(
[tpu-job]              (dense): Linear(in_features=5120, out_features=5120, bias=True)
[tpu-job]              (dropout): Dropout(p=0.0, inplace=False)
[tpu-job]            )
[tpu-job]            (LayerNorm): LayerNorm((5120,), eps=1e-05, elementwise_affine=True)
[tpu-job]          )
[tpu-job]          (intermediate): EsmIntermediate(
[tpu-job]            (dense): Linear(in_features=5120, out_features=20480, bias=True)
[tpu-job]          )
[tpu-job]          (output): EsmOutput(
[tpu-job]            (dense): Linear(in_features=20480, out_features=5120, bias=True)
[tpu-job]            (dropout): Dropout(p=0.0, inplace=False)
[tpu-job]          )
[tpu-job]          (LayerNorm): LayerNorm((5120,), eps=1e-05, elementwise_affine=True)
[tpu-job]        )
[tpu-job]      )
[tpu-job]      (emb_layer_norm_after): LayerNorm((5120,), eps=1e-05, elementwise_affine=True)
[tpu-job]    )
[tpu-job]    (contact_head): EsmContactPredictionHead(
[tpu-job]      (regression): Linear(in_features=1920, out_features=1, bias=True)
[tpu-job]      (activation): Sigmoid()
[tpu-job]    )
[tpu-job]  )
[tpu-job]  (lm_head): EsmLMHead(
[tpu-job]    (dense): Linear(in_features=5120, out_features=5120, bias=True)
[tpu-job]    (layer_norm): LayerNorm((5120,), eps=1e-05, elementwise_affine=True)
[tpu-job]    (decoder): Linear(in_features=5120, out_features=33, bias=False)
[tpu-job]  )
[tpu-job])>
[tpu-job]INFO:__main__:Loaded model: facebook/esm2_t48_15B_UR50D
[tpu-job]INFO:__main__:Model parameters: <bound method ModuleUtilsMixin.num_parameters of EsmForMaskedLM(
[tpu-job]  (esm): EsmModel(
[tpu-job]    (embeddings): EsmEmbeddings(
[tpu-job]      (word_embeddings): Embedding(33, 5120, padding_idx=1)
[tpu-job]      (dropout): Dropout(p=0.0, inplace=False)
[tpu-job]      (position_embeddings): Embedding(1026, 5120, padding_idx=1)
[tpu-job]    )
[tpu-job]    (encoder): EsmEncoder(
[tpu-job]      (layer): ModuleList(
[tpu-job]        (0-47): 48 x EsmLayer(
[tpu-job]          (attention): EsmAttention(
[tpu-job]            (self): EsmSelfAttention(
[tpu-job]              (query): Linear(in_features=5120, out_features=5120, bias=True)
[tpu-job]              (key): Linear(in_features=5120, out_features=5120, bias=True)
[tpu-job]              (value): Linear(in_features=5120, out_features=5120, bias=True)
[tpu-job]              (dropout): Dropout(p=0.0, inplace=False)
[tpu-job]              (rotary_embeddings): RotaryEmbedding()
[tpu-job]            )
[tpu-job]            (output): EsmSelfOutput(
[tpu-job]              (dense): Linear(in_features=5120, out_features=5120, bias=True)
[tpu-job]              (dropout): Dropout(p=0.0, inplace=False)
[tpu-job]            )
[tpu-job]            (LayerNorm): LayerNorm((5120,), eps=1e-05, elementwise_affine=True)
[tpu-job]          )
[tpu-job]          (intermediate): EsmIntermediate(
[tpu-job]            (dense): Linear(in_features=5120, out_features=20480, bias=True)
[tpu-job]          )
[tpu-job]          (output): EsmOutput(
[tpu-job]            (dense): Linear(in_features=20480, out_features=5120, bias=True)
[tpu-job]            (dropout): Dropout(p=0.0, inplace=False)
[tpu-job]          )
[tpu-job]          (LayerNorm): LayerNorm((5120,), eps=1e-05, elementwise_affine=True)
[tpu-job]        )
[tpu-job]      )
[tpu-job]      (emb_layer_norm_after): LayerNorm((5120,), eps=1e-05, elementwise_affine=True)
[tpu-job]    )
[tpu-job]    (contact_head): EsmContactPredictionHead(
[tpu-job]      (regression): Linear(in_features=1920, out_features=1, bias=True)
[tpu-job]      (activation): Sigmoid()
[tpu-job]    )
[tpu-job]  )
[tpu-job]  (lm_head): EsmLMHead(
[tpu-job]    (dense): Linear(in_features=5120, out_features=5120, bias=True)
[tpu-job]    (layer_norm): LayerNorm((5120,), eps=1e-05, elementwise_affine=True)
[tpu-job]    (decoder): Linear(in_features=5120, out_features=33, bias=False)
[tpu-job]  )
[tpu-job])>
[tpu-job]INFO:__main__:Loaded model: facebook/esm2_t48_15B_UR50D
[tpu-job]INFO:__main__:Model parameters: <bound method ModuleUtilsMixin.num_parameters of EsmForMaskedLM(
[tpu-job]  (esm): EsmModel(
[tpu-job]    (embeddings): EsmEmbeddings(
[tpu-job]      (word_embeddings): Embedding(33, 5120, padding_idx=1)
[tpu-job]      (dropout): Dropout(p=0.0, inplace=False)
[tpu-job]      (position_embeddings): Embedding(1026, 5120, padding_idx=1)
[tpu-job]    )
[tpu-job]    (encoder): EsmEncoder(
[tpu-job]      (layer): ModuleList(
[tpu-job]        (0-47): 48 x EsmLayer(
[tpu-job]          (attention): EsmAttention(
[tpu-job]            (self): EsmSelfAttention(
[tpu-job]              (query): Linear(in_features=5120, out_features=5120, bias=True)
[tpu-job]              (key): Linear(in_features=5120, out_features=5120, bias=True)
[tpu-job]              (value): Linear(in_features=5120, out_features=5120, bias=True)
[tpu-job]              (dropout): Dropout(p=0.0, inplace=False)
[tpu-job]              (rotary_embeddings): RotaryEmbedding()
[tpu-job]            )
[tpu-job]            (output): EsmSelfOutput(
[tpu-job]              (dense): Linear(in_features=5120, out_features=5120, bias=True)
[tpu-job]              (dropout): Dropout(p=0.0, inplace=False)
[tpu-job]            )
[tpu-job]            (LayerNorm): LayerNorm((5120,), eps=1e-05, elementwise_affine=True)
[tpu-job]          )
[tpu-job]          (intermediate): EsmIntermediate(
[tpu-job]            (dense): Linear(in_features=5120, out_features=20480, bias=True)
[tpu-job]          )
[tpu-job]          (output): EsmOutput(
[tpu-job]            (dense): Linear(in_features=20480, out_features=5120, bias=True)
[tpu-job]            (dropout): Dropout(p=0.0, inplace=False)
[tpu-job]          )
[tpu-job]          (LayerNorm): LayerNorm((5120,), eps=1e-05, elementwise_affine=True)
[tpu-job]        )
[tpu-job]      )
[tpu-job]      (emb_layer_norm_after): LayerNorm((5120,), eps=1e-05, elementwise_affine=True)
[tpu-job]    )
[tpu-job]    (contact_head): EsmContactPredictionHead(
[tpu-job]      (regression): Linear(in_features=1920, out_features=1, bias=True)
[tpu-job]      (activation): Sigmoid()
[tpu-job]    )
[tpu-job]  )
[tpu-job]  (lm_head): EsmLMHead(
[tpu-job]    (dense): Linear(in_features=5120, out_features=5120, bias=True)
[tpu-job]    (layer_norm): LayerNorm((5120,), eps=1e-05, elementwise_affine=True)
[tpu-job]    (decoder): Linear(in_features=5120, out_features=33, bias=False)
[tpu-job]  )
[tpu-job])>
[tpu-job]INFO:__main__:Loaded model: facebook/esm2_t48_15B_UR50D
[tpu-job]INFO:__main__:Model parameters: <bound method ModuleUtilsMixin.num_parameters of EsmForMaskedLM(
[tpu-job]  (esm): EsmModel(
[tpu-job]    (embeddings): EsmEmbeddings(
[tpu-job]      (word_embeddings): Embedding(33, 5120, padding_idx=1)
[tpu-job]      (dropout): Dropout(p=0.0, inplace=False)
[tpu-job]      (position_embeddings): Embedding(1026, 5120, padding_idx=1)
[tpu-job]    )
[tpu-job]    (encoder): EsmEncoder(
[tpu-job]      (layer): ModuleList(
[tpu-job]        (0-47): 48 x EsmLayer(
[tpu-job]          (attention): EsmAttention(
[tpu-job]            (self): EsmSelfAttention(
[tpu-job]              (query): Linear(in_features=5120, out_features=5120, bias=True)
[tpu-job]              (key): Linear(in_features=5120, out_features=5120, bias=True)
[tpu-job]              (value): Linear(in_features=5120, out_features=5120, bias=True)
[tpu-job]              (dropout): Dropout(p=0.0, inplace=False)
[tpu-job]              (rotary_embeddings): RotaryEmbedding()
[tpu-job]            )
[tpu-job]            (output): EsmSelfOutput(
[tpu-job]              (dense): Linear(in_features=5120, out_features=5120, bias=True)
[tpu-job]              (dropout): Dropout(p=0.0, inplace=False)
[tpu-job]            )
[tpu-job]            (LayerNorm): LayerNorm((5120,), eps=1e-05, elementwise_affine=True)
[tpu-job]          )
[tpu-job]          (intermediate): EsmIntermediate(
[tpu-job]            (dense): Linear(in_features=5120, out_features=20480, bias=True)
[tpu-job]          )
[tpu-job]          (output): EsmOutput(
[tpu-job]            (dense): Linear(in_features=20480, out_features=5120, bias=True)
[tpu-job]            (dropout): Dropout(p=0.0, inplace=False)
[tpu-job]          )
[tpu-job]          (LayerNorm): LayerNorm((5120,), eps=1e-05, elementwise_affine=True)
[tpu-job]        )
[tpu-job]      )
[tpu-job]      (emb_layer_norm_after): LayerNorm((5120,), eps=1e-05, elementwise_affine=True)
[tpu-job]    )
[tpu-job]    (contact_head): EsmContactPredictionHead(
[tpu-job]      (regression): Linear(in_features=1920, out_features=1, bias=True)
[tpu-job]      (activation): Sigmoid()
[tpu-job]    )
[tpu-job]  )
[tpu-job]  (lm_head): EsmLMHead(
[tpu-job]    (dense): Linear(in_features=5120, out_features=5120, bias=True)
[tpu-job]    (layer_norm): LayerNorm((5120,), eps=1e-05, elementwise_affine=True)
[tpu-job]    (decoder): Linear(in_features=5120, out_features=33, bias=False)
[tpu-job]  )
[tpu-job])>
[tpu-job]INFO:__main__:Loaded model: facebook/esm2_t48_15B_UR50D
[tpu-job]INFO:__main__:Model parameters: <bound method ModuleUtilsMixin.num_parameters of EsmForMaskedLM(
[tpu-job]  (esm): EsmModel(
[tpu-job]    (embeddings): EsmEmbeddings(
[tpu-job]      (word_embeddings): Embedding(33, 5120, padding_idx=1)
[tpu-job]      (dropout): Dropout(p=0.0, inplace=False)
[tpu-job]      (position_embeddings): Embedding(1026, 5120, padding_idx=1)
[tpu-job]    )
[tpu-job]    (encoder): EsmEncoder(
[tpu-job]      (layer): ModuleList(
[tpu-job]        (0-47): 48 x EsmLayer(
[tpu-job]          (attention): EsmAttention(
[tpu-job]            (self): EsmSelfAttention(
[tpu-job]              (query): Linear(in_features=5120, out_features=5120, bias=True)
[tpu-job]              (key): Linear(in_features=5120, out_features=5120, bias=True)
[tpu-job]              (value): Linear(in_features=5120, out_features=5120, bias=True)
[tpu-job]              (dropout): Dropout(p=0.0, inplace=False)
[tpu-job]              (rotary_embeddings): RotaryEmbedding()
[tpu-job]            )
[tpu-job]            (output): EsmSelfOutput(
[tpu-job]              (dense): Linear(in_features=5120, out_features=5120, bias=True)
[tpu-job]              (dropout): Dropout(p=0.0, inplace=False)
[tpu-job]            )
[tpu-job]            (LayerNorm): LayerNorm((5120,), eps=1e-05, elementwise_affine=True)
[tpu-job]          )
[tpu-job]          (intermediate): EsmIntermediate(
[tpu-job]            (dense): Linear(in_features=5120, out_features=20480, bias=True)
[tpu-job]          )
[tpu-job]          (output): EsmOutput(
[tpu-job]            (dense): Linear(in_features=20480, out_features=5120, bias=True)
[tpu-job]            (dropout): Dropout(p=0.0, inplace=False)
[tpu-job]          )
[tpu-job]          (LayerNorm): LayerNorm((5120,), eps=1e-05, elementwise_affine=True)
[tpu-job]        )
[tpu-job]      )
[tpu-job]      (emb_layer_norm_after): LayerNorm((5120,), eps=1e-05, elementwise_affine=True)
[tpu-job]    )
[tpu-job]    (contact_head): EsmContactPredictionHead(
[tpu-job]      (regression): Linear(in_features=1920, out_features=1, bias=True)
[tpu-job]      (activation): Sigmoid()
[tpu-job]    )
[tpu-job]  )
[tpu-job]  (lm_head): EsmLMHead(
[tpu-job]    (dense): Linear(in_features=5120, out_features=5120, bias=True)
[tpu-job]    (layer_norm): LayerNorm((5120,), eps=1e-05, elementwise_affine=True)
[tpu-job]    (decoder): Linear(in_features=5120, out_features=33, bias=False)
[tpu-job]  )
[tpu-job])>
[tpu-job]INFO:__main__:Loaded model: facebook/esm2_t48_15B_UR50D
[tpu-job]INFO:__main__:Model parameters: <bound method ModuleUtilsMixin.num_parameters of EsmForMaskedLM(
[tpu-job]  (esm): EsmModel(
[tpu-job]    (embeddings): EsmEmbeddings(
[tpu-job]      (word_embeddings): Embedding(33, 5120, padding_idx=1)
[tpu-job]      (dropout): Dropout(p=0.0, inplace=False)
[tpu-job]      (position_embeddings): Embedding(1026, 5120, padding_idx=1)
[tpu-job]    )
[tpu-job]    (encoder): EsmEncoder(
[tpu-job]      (layer): ModuleList(
[tpu-job]        (0-47): 48 x EsmLayer(
[tpu-job]          (attention): EsmAttention(
[tpu-job]            (self): EsmSelfAttention(
[tpu-job]              (query): Linear(in_features=5120, out_features=5120, bias=True)
[tpu-job]              (key): Linear(in_features=5120, out_features=5120, bias=True)
[tpu-job]              (value): Linear(in_features=5120, out_features=5120, bias=True)
[tpu-job]              (dropout): Dropout(p=0.0, inplace=False)
[tpu-job]              (rotary_embeddings): RotaryEmbedding()
[tpu-job]            )
[tpu-job]            (output): EsmSelfOutput(
[tpu-job]              (dense): Linear(in_features=5120, out_features=5120, bias=True)
[tpu-job]              (dropout): Dropout(p=0.0, inplace=False)
[tpu-job]            )
[tpu-job]            (LayerNorm): LayerNorm((5120,), eps=1e-05, elementwise_affine=True)
[tpu-job]          )
[tpu-job]          (intermediate): EsmIntermediate(
[tpu-job]            (dense): Linear(in_features=5120, out_features=20480, bias=True)
[tpu-job]          )
[tpu-job]          (output): EsmOutput(
[tpu-job]            (dense): Linear(in_features=20480, out_features=5120, bias=True)
[tpu-job]            (dropout): Dropout(p=0.0, inplace=False)
[tpu-job]          )
[tpu-job]          (LayerNorm): LayerNorm((5120,), eps=1e-05, elementwise_affine=True)
[tpu-job]        )
[tpu-job]      )
[tpu-job]      (emb_layer_norm_after): LayerNorm((5120,), eps=1e-05, elementwise_affine=True)
[tpu-job]    )
[tpu-job]    (contact_head): EsmContactPredictionHead(
[tpu-job]      (regression): Linear(in_features=1920, out_features=1, bias=True)
[tpu-job]      (activation): Sigmoid()
[tpu-job]    )
[tpu-job]  )
[tpu-job]  (lm_head): EsmLMHead(
[tpu-job]    (dense): Linear(in_features=5120, out_features=5120, bias=True)
[tpu-job]    (layer_norm): LayerNorm((5120,), eps=1e-05, elementwise_affine=True)
[tpu-job]    (decoder): Linear(in_features=5120, out_features=33, bias=False)
[tpu-job]  )
[tpu-job])>
[tpu-job]INFO:__main__:Loaded model: facebook/esm2_t48_15B_UR50D
[tpu-job]INFO:__main__:Model parameters: <bound method ModuleUtilsMixin.num_parameters of EsmForMaskedLM(
[tpu-job]  (esm): EsmModel(
[tpu-job]    (embeddings): EsmEmbeddings(
[tpu-job]      (word_embeddings): Embedding(33, 5120, padding_idx=1)
[tpu-job]      (dropout): Dropout(p=0.0, inplace=False)
[tpu-job]      (position_embeddings): Embedding(1026, 5120, padding_idx=1)
[tpu-job]    )
[tpu-job]    (encoder): EsmEncoder(
[tpu-job]      (layer): ModuleList(
[tpu-job]        (0-47): 48 x EsmLayer(
[tpu-job]          (attention): EsmAttention(
[tpu-job]            (self): EsmSelfAttention(
[tpu-job]              (query): Linear(in_features=5120, out_features=5120, bias=True)
[tpu-job]              (key): Linear(in_features=5120, out_features=5120, bias=True)
[tpu-job]              (value): Linear(in_features=5120, out_features=5120, bias=True)
[tpu-job]              (dropout): Dropout(p=0.0, inplace=False)
[tpu-job]              (rotary_embeddings): RotaryEmbedding()
[tpu-job]            )
[tpu-job]            (output): EsmSelfOutput(
[tpu-job]              (dense): Linear(in_features=5120, out_features=5120, bias=True)
[tpu-job]              (dropout): Dropout(p=0.0, inplace=False)
[tpu-job]            )
[tpu-job]            (LayerNorm): LayerNorm((5120,), eps=1e-05, elementwise_affine=True)
[tpu-job]          )
[tpu-job]          (intermediate): EsmIntermediate(
[tpu-job]            (dense): Linear(in_features=5120, out_features=20480, bias=True)
[tpu-job]          )
[tpu-job]          (output): EsmOutput(
[tpu-job]            (dense): Linear(in_features=20480, out_features=5120, bias=True)
[tpu-job]            (dropout): Dropout(p=0.0, inplace=False)
[tpu-job]          )
[tpu-job]          (LayerNorm): LayerNorm((5120,), eps=1e-05, elementwise_affine=True)
[tpu-job]        )
[tpu-job]      )
[tpu-job]      (emb_layer_norm_after): LayerNorm((5120,), eps=1e-05, elementwise_affine=True)
[tpu-job]    )
[tpu-job]    (contact_head): EsmContactPredictionHead(
[tpu-job]      (regression): Linear(in_features=1920, out_features=1, bias=True)
[tpu-job]      (activation): Sigmoid()
[tpu-job]    )
[tpu-job]  )
[tpu-job]  (lm_head): EsmLMHead(
[tpu-job]    (dense): Linear(in_features=5120, out_features=5120, bias=True)
[tpu-job]    (layer_norm): LayerNorm((5120,), eps=1e-05, elementwise_affine=True)
[tpu-job]    (decoder): Linear(in_features=5120, out_features=33, bias=False)
[tpu-job]  )
[tpu-job])>
[tpu-job]INFO:__main__:Loaded model: facebook/esm2_t48_15B_UR50D
[tpu-job]INFO:__main__:Model parameters: <bound method ModuleUtilsMixin.num_parameters of EsmForMaskedLM(
[tpu-job]  (esm): EsmModel(
[tpu-job]    (embeddings): EsmEmbeddings(
[tpu-job]      (word_embeddings): Embedding(33, 5120, padding_idx=1)
[tpu-job]      (dropout): Dropout(p=0.0, inplace=False)
[tpu-job]      (position_embeddings): Embedding(1026, 5120, padding_idx=1)
[tpu-job]    )
[tpu-job]    (encoder): EsmEncoder(
[tpu-job]      (layer): ModuleList(
[tpu-job]        (0-47): 48 x EsmLayer(
[tpu-job]          (attention): EsmAttention(
[tpu-job]            (self): EsmSelfAttention(
[tpu-job]              (query): Linear(in_features=5120, out_features=5120, bias=True)
[tpu-job]              (key): Linear(in_features=5120, out_features=5120, bias=True)
[tpu-job]              (value): Linear(in_features=5120, out_features=5120, bias=True)
[tpu-job]              (dropout): Dropout(p=0.0, inplace=False)
[tpu-job]              (rotary_embeddings): RotaryEmbedding()
[tpu-job]            )
[tpu-job]            (output): EsmSelfOutput(
[tpu-job]              (dense): Linear(in_features=5120, out_features=5120, bias=True)
[tpu-job]              (dropout): Dropout(p=0.0, inplace=False)
[tpu-job]            )
[tpu-job]            (LayerNorm): LayerNorm((5120,), eps=1e-05, elementwise_affine=True)
[tpu-job]          )
[tpu-job]          (intermediate): EsmIntermediate(
[tpu-job]            (dense): Linear(in_features=5120, out_features=20480, bias=True)
[tpu-job]          )
[tpu-job]          (output): EsmOutput(
[tpu-job]            (dense): Linear(in_features=20480, out_features=5120, bias=True)
[tpu-job]            (dropout): Dropout(p=0.0, inplace=False)
[tpu-job]          )
[tpu-job]          (LayerNorm): LayerNorm((5120,), eps=1e-05, elementwise_affine=True)
[tpu-job]        )
[tpu-job]      )
[tpu-job]      (emb_layer_norm_after): LayerNorm((5120,), eps=1e-05, elementwise_affine=True)
[tpu-job]    )
[tpu-job]    (contact_head): EsmContactPredictionHead(
[tpu-job]      (regression): Linear(in_features=1920, out_features=1, bias=True)
[tpu-job]      (activation): Sigmoid()
[tpu-job]    )
[tpu-job]  )
[tpu-job]  (lm_head): EsmLMHead(
[tpu-job]    (dense): Linear(in_features=5120, out_features=5120, bias=True)
[tpu-job]    (layer_norm): LayerNorm((5120,), eps=1e-05, elementwise_affine=True)
[tpu-job]    (decoder): Linear(in_features=5120, out_features=33, bias=False)
[tpu-job]  )
[tpu-job])>
[tpu-job]INFO:__main__:Loaded model: facebook/esm2_t48_15B_UR50D
[tpu-job]INFO:__main__:Model parameters: <bound method ModuleUtilsMixin.num_parameters of EsmForMaskedLM(
[tpu-job]  (esm): EsmModel(
[tpu-job]    (embeddings): EsmEmbeddings(
[tpu-job]      (word_embeddings): Embedding(33, 5120, padding_idx=1)
[tpu-job]      (dropout): Dropout(p=0.0, inplace=False)
[tpu-job]      (position_embeddings): Embedding(1026, 5120, padding_idx=1)
[tpu-job]    )
[tpu-job]    (encoder): EsmEncoder(
[tpu-job]      (layer): ModuleList(
[tpu-job]        (0-47): 48 x EsmLayer(
[tpu-job]          (attention): EsmAttention(
[tpu-job]            (self): EsmSelfAttention(
[tpu-job]              (query): Linear(in_features=5120, out_features=5120, bias=True)
[tpu-job]              (key): Linear(in_features=5120, out_features=5120, bias=True)
[tpu-job]              (value): Linear(in_features=5120, out_features=5120, bias=True)
[tpu-job]              (dropout): Dropout(p=0.0, inplace=False)
[tpu-job]              (rotary_embeddings): RotaryEmbedding()
[tpu-job]            )
[tpu-job]            (output): EsmSelfOutput(
[tpu-job]              (dense): Linear(in_features=5120, out_features=5120, bias=True)
[tpu-job]              (dropout): Dropout(p=0.0, inplace=False)
[tpu-job]            )
[tpu-job]            (LayerNorm): LayerNorm((5120,), eps=1e-05, elementwise_affine=True)
[tpu-job]          )
[tpu-job]          (intermediate): EsmIntermediate(
[tpu-job]            (dense): Linear(in_features=5120, out_features=20480, bias=True)
[tpu-job]          )
[tpu-job]          (output): EsmOutput(
[tpu-job]            (dense): Linear(in_features=20480, out_features=5120, bias=True)
[tpu-job]            (dropout): Dropout(p=0.0, inplace=False)
[tpu-job]          )
[tpu-job]          (LayerNorm): LayerNorm((5120,), eps=1e-05, elementwise_affine=True)
[tpu-job]        )
[tpu-job]      )
[tpu-job]      (emb_layer_norm_after): LayerNorm((5120,), eps=1e-05, elementwise_affine=True)
[tpu-job]    )
[tpu-job]    (contact_head): EsmContactPredictionHead(
[tpu-job]      (regression): Linear(in_features=1920, out_features=1, bias=True)
[tpu-job]      (activation): Sigmoid()
[tpu-job]    )
[tpu-job]  )
[tpu-job]  (lm_head): EsmLMHead(
[tpu-job]    (dense): Linear(in_features=5120, out_features=5120, bias=True)
[tpu-job]    (layer_norm): LayerNorm((5120,), eps=1e-05, elementwise_affine=True)
[tpu-job]    (decoder): Linear(in_features=5120, out_features=33, bias=False)
[tpu-job]  )
[tpu-job])>
[tpu-job]INFO:__main__:Loaded model: facebook/esm2_t48_15B_UR50D
[tpu-job]INFO:__main__:Model parameters: <bound method ModuleUtilsMixin.num_parameters of EsmForMaskedLM(
[tpu-job]  (esm): EsmModel(
[tpu-job]    (embeddings): EsmEmbeddings(
[tpu-job]      (word_embeddings): Embedding(33, 5120, padding_idx=1)
[tpu-job]      (dropout): Dropout(p=0.0, inplace=False)
[tpu-job]      (position_embeddings): Embedding(1026, 5120, padding_idx=1)
[tpu-job]    )
[tpu-job]    (encoder): EsmEncoder(
[tpu-job]      (layer): ModuleList(
[tpu-job]        (0-47): 48 x EsmLayer(
[tpu-job]          (attention): EsmAttention(
[tpu-job]            (self): EsmSelfAttention(
[tpu-job]              (query): Linear(in_features=5120, out_features=5120, bias=True)
[tpu-job]              (key): Linear(in_features=5120, out_features=5120, bias=True)
[tpu-job]              (value): Linear(in_features=5120, out_features=5120, bias=True)
[tpu-job]              (dropout): Dropout(p=0.0, inplace=False)
[tpu-job]              (rotary_embeddings): RotaryEmbedding()
[tpu-job]            )
[tpu-job]            (output): EsmSelfOutput(
[tpu-job]              (dense): Linear(in_features=5120, out_features=5120, bias=True)
[tpu-job]              (dropout): Dropout(p=0.0, inplace=False)
[tpu-job]            )
[tpu-job]            (LayerNorm): LayerNorm((5120,), eps=1e-05, elementwise_affine=True)
[tpu-job]          )
[tpu-job]          (intermediate): EsmIntermediate(
[tpu-job]            (dense): Linear(in_features=5120, out_features=20480, bias=True)
[tpu-job]          )
[tpu-job]          (output): EsmOutput(
[tpu-job]            (dense): Linear(in_features=20480, out_features=5120, bias=True)
[tpu-job]            (dropout): Dropout(p=0.0, inplace=False)
[tpu-job]          )
[tpu-job]          (LayerNorm): LayerNorm((5120,), eps=1e-05, elementwise_affine=True)
[tpu-job]        )
[tpu-job]      )
[tpu-job]      (emb_layer_norm_after): LayerNorm((5120,), eps=1e-05, elementwise_affine=True)
[tpu-job]    )
[tpu-job]    (contact_head): EsmContactPredictionHead(
[tpu-job]      (regression): Linear(in_features=1920, out_features=1, bias=True)
[tpu-job]      (activation): Sigmoid()
[tpu-job]    )
[tpu-job]  )
[tpu-job]  (lm_head): EsmLMHead(
[tpu-job]    (dense): Linear(in_features=5120, out_features=5120, bias=True)
[tpu-job]    (layer_norm): LayerNorm((5120,), eps=1e-05, elementwise_affine=True)
[tpu-job]    (decoder): Linear(in_features=5120, out_features=33, bias=False)
[tpu-job]  )
[tpu-job])>
[tpu-job]INFO:__main__:Loaded model: facebook/esm2_t48_15B_UR50D
[tpu-job]INFO:__main__:Model parameters: <bound method ModuleUtilsMixin.num_parameters of EsmForMaskedLM(
[tpu-job]  (esm): EsmModel(
[tpu-job]    (embeddings): EsmEmbeddings(
[tpu-job]      (word_embeddings): Embedding(33, 5120, padding_idx=1)
[tpu-job]      (dropout): Dropout(p=0.0, inplace=False)
[tpu-job]      (position_embeddings): Embedding(1026, 5120, padding_idx=1)
[tpu-job]    )
[tpu-job]    (encoder): EsmEncoder(
[tpu-job]      (layer): ModuleList(
[tpu-job]        (0-47): 48 x EsmLayer(
[tpu-job]          (attention): EsmAttention(
[tpu-job]            (self): EsmSelfAttention(
[tpu-job]              (query): Linear(in_features=5120, out_features=5120, bias=True)
[tpu-job]              (key): Linear(in_features=5120, out_features=5120, bias=True)
[tpu-job]              (value): Linear(in_features=5120, out_features=5120, bias=True)
[tpu-job]              (dropout): Dropout(p=0.0, inplace=False)
[tpu-job]              (rotary_embeddings): RotaryEmbedding()
[tpu-job]            )
[tpu-job]            (output): EsmSelfOutput(
[tpu-job]              (dense): Linear(in_features=5120, out_features=5120, bias=True)
[tpu-job]              (dropout): Dropout(p=0.0, inplace=False)
[tpu-job]            )
[tpu-job]            (LayerNorm): LayerNorm((5120,), eps=1e-05, elementwise_affine=True)
[tpu-job]          )
[tpu-job]          (intermediate): EsmIntermediate(
[tpu-job]            (dense): Linear(in_features=5120, out_features=20480, bias=True)
[tpu-job]          )
[tpu-job]          (output): EsmOutput(
[tpu-job]            (dense): Linear(in_features=20480, out_features=5120, bias=True)
[tpu-job]            (dropout): Dropout(p=0.0, inplace=False)
[tpu-job]          )
[tpu-job]          (LayerNorm): LayerNorm((5120,), eps=1e-05, elementwise_affine=True)
[tpu-job]        )
[tpu-job]      )
[tpu-job]      (emb_layer_norm_after): LayerNorm((5120,), eps=1e-05, elementwise_affine=True)
[tpu-job]    )
[tpu-job]    (contact_head): EsmContactPredictionHead(
[tpu-job]      (regression): Linear(in_features=1920, out_features=1, bias=True)
[tpu-job]      (activation): Sigmoid()
[tpu-job]    )
[tpu-job]  )
[tpu-job]  (lm_head): EsmLMHead(
[tpu-job]    (dense): Linear(in_features=5120, out_features=5120, bias=True)
[tpu-job]    (layer_norm): LayerNorm((5120,), eps=1e-05, elementwise_affine=True)
[tpu-job]    (decoder): Linear(in_features=5120, out_features=33, bias=False)
[tpu-job]  )
[tpu-job])>
[tpu-job]INFO:__main__:Loaded model: facebook/esm2_t48_15B_UR50D
[tpu-job]INFO:__main__:Model parameters: <bound method ModuleUtilsMixin.num_parameters of EsmForMaskedLM(
[tpu-job]  (esm): EsmModel(
[tpu-job]    (embeddings): EsmEmbeddings(
[tpu-job]      (word_embeddings): Embedding(33, 5120, padding_idx=1)
[tpu-job]      (dropout): Dropout(p=0.0, inplace=False)
[tpu-job]      (position_embeddings): Embedding(1026, 5120, padding_idx=1)
[tpu-job]    )
[tpu-job]    (encoder): EsmEncoder(
[tpu-job]      (layer): ModuleList(
[tpu-job]        (0-47): 48 x EsmLayer(
[tpu-job]          (attention): EsmAttention(
[tpu-job]            (self): EsmSelfAttention(
[tpu-job]              (query): Linear(in_features=5120, out_features=5120, bias=True)
[tpu-job]              (key): Linear(in_features=5120, out_features=5120, bias=True)
[tpu-job]              (value): Linear(in_features=5120, out_features=5120, bias=True)
[tpu-job]              (dropout): Dropout(p=0.0, inplace=False)
[tpu-job]              (rotary_embeddings): RotaryEmbedding()
[tpu-job]            )
[tpu-job]            (output): EsmSelfOutput(
[tpu-job]              (dense): Linear(in_features=5120, out_features=5120, bias=True)
[tpu-job]              (dropout): Dropout(p=0.0, inplace=False)
[tpu-job]            )
[tpu-job]            (LayerNorm): LayerNorm((5120,), eps=1e-05, elementwise_affine=True)
[tpu-job]          )
[tpu-job]          (intermediate): EsmIntermediate(
[tpu-job]            (dense): Linear(in_features=5120, out_features=20480, bias=True)
[tpu-job]          )
[tpu-job]          (output): EsmOutput(
[tpu-job]            (dense): Linear(in_features=20480, out_features=5120, bias=True)
[tpu-job]            (dropout): Dropout(p=0.0, inplace=False)
[tpu-job]          )
[tpu-job]          (LayerNorm): LayerNorm((5120,), eps=1e-05, elementwise_affine=True)
[tpu-job]        )
[tpu-job]      )
[tpu-job]      (emb_layer_norm_after): LayerNorm((5120,), eps=1e-05, elementwise_affine=True)
[tpu-job]    )
[tpu-job]    (contact_head): EsmContactPredictionHead(
[tpu-job]      (regression): Linear(in_features=1920, out_features=1, bias=True)
[tpu-job]      (activation): Sigmoid()
[tpu-job]    )
[tpu-job]  )
[tpu-job]  (lm_head): EsmLMHead(
[tpu-job]    (dense): Linear(in_features=5120, out_features=5120, bias=True)
[tpu-job]    (layer_norm): LayerNorm((5120,), eps=1e-05, elementwise_affine=True)
[tpu-job]    (decoder): Linear(in_features=5120, out_features=33, bias=False)
[tpu-job]  )
[tpu-job])>
[tpu-job]INFO:__main__:Loaded model: facebook/esm2_t48_15B_UR50D
[tpu-job]INFO:__main__:Model parameters: <bound method ModuleUtilsMixin.num_parameters of EsmForMaskedLM(
[tpu-job]  (esm): EsmModel(
[tpu-job]    (embeddings): EsmEmbeddings(
[tpu-job]      (word_embeddings): Embedding(33, 5120, padding_idx=1)
[tpu-job]      (dropout): Dropout(p=0.0, inplace=False)
[tpu-job]      (position_embeddings): Embedding(1026, 5120, padding_idx=1)
[tpu-job]    )
[tpu-job]    (encoder): EsmEncoder(
[tpu-job]      (layer): ModuleList(
[tpu-job]        (0-47): 48 x EsmLayer(
[tpu-job]          (attention): EsmAttention(
[tpu-job]            (self): EsmSelfAttention(
[tpu-job]              (query): Linear(in_features=5120, out_features=5120, bias=True)
[tpu-job]              (key): Linear(in_features=5120, out_features=5120, bias=True)
[tpu-job]              (value): Linear(in_features=5120, out_features=5120, bias=True)
[tpu-job]              (dropout): Dropout(p=0.0, inplace=False)
[tpu-job]              (rotary_embeddings): RotaryEmbedding()
[tpu-job]            )
[tpu-job]            (output): EsmSelfOutput(
[tpu-job]              (dense): Linear(in_features=5120, out_features=5120, bias=True)
[tpu-job]              (dropout): Dropout(p=0.0, inplace=False)
[tpu-job]            )
[tpu-job]            (LayerNorm): LayerNorm((5120,), eps=1e-05, elementwise_affine=True)
[tpu-job]          )
[tpu-job]          (intermediate): EsmIntermediate(
[tpu-job]            (dense): Linear(in_features=5120, out_features=20480, bias=True)
[tpu-job]          )
[tpu-job]          (output): EsmOutput(
[tpu-job]            (dense): Linear(in_features=20480, out_features=5120, bias=True)
[tpu-job]            (dropout): Dropout(p=0.0, inplace=False)
[tpu-job]          )
[tpu-job]          (LayerNorm): LayerNorm((5120,), eps=1e-05, elementwise_affine=True)
[tpu-job]        )
[tpu-job]      )
[tpu-job]      (emb_layer_norm_after): LayerNorm((5120,), eps=1e-05, elementwise_affine=True)
[tpu-job]    )
[tpu-job]    (contact_head): EsmContactPredictionHead(
[tpu-job]      (regression): Linear(in_features=1920, out_features=1, bias=True)
[tpu-job]      (activation): Sigmoid()
[tpu-job]    )
[tpu-job]  )
[tpu-job]  (lm_head): EsmLMHead(
[tpu-job]    (dense): Linear(in_features=5120, out_features=5120, bias=True)
[tpu-job]    (layer_norm): LayerNorm((5120,), eps=1e-05, elementwise_affine=True)
[tpu-job]    (decoder): Linear(in_features=5120, out_features=33, bias=False)
[tpu-job]  )
[tpu-job])>
[tpu-job]INFO:__main__:Loaded model: facebook/esm2_t48_15B_UR50D
[tpu-job]INFO:__main__:Model parameters: <bound method ModuleUtilsMixin.num_parameters of EsmForMaskedLM(
[tpu-job]  (esm): EsmModel(
[tpu-job]    (embeddings): EsmEmbeddings(
[tpu-job]      (word_embeddings): Embedding(33, 5120, padding_idx=1)
[tpu-job]      (dropout): Dropout(p=0.0, inplace=False)
[tpu-job]      (position_embeddings): Embedding(1026, 5120, padding_idx=1)
[tpu-job]    )
[tpu-job]    (encoder): EsmEncoder(
[tpu-job]      (layer): ModuleList(
[tpu-job]        (0-47): 48 x EsmLayer(
[tpu-job]          (attention): EsmAttention(
[tpu-job]            (self): EsmSelfAttention(
[tpu-job]              (query): Linear(in_features=5120, out_features=5120, bias=True)
[tpu-job]              (key): Linear(in_features=5120, out_features=5120, bias=True)
[tpu-job]              (value): Linear(in_features=5120, out_features=5120, bias=True)
[tpu-job]              (dropout): Dropout(p=0.0, inplace=False)
[tpu-job]              (rotary_embeddings): RotaryEmbedding()
[tpu-job]            )
[tpu-job]            (output): EsmSelfOutput(
[tpu-job]              (dense): Linear(in_features=5120, out_features=5120, bias=True)
[tpu-job]              (dropout): Dropout(p=0.0, inplace=False)
[tpu-job]            )
[tpu-job]            (LayerNorm): LayerNorm((5120,), eps=1e-05, elementwise_affine=True)
[tpu-job]          )
[tpu-job]          (intermediate): EsmIntermediate(
[tpu-job]            (dense): Linear(in_features=5120, out_features=20480, bias=True)
[tpu-job]          )
[tpu-job]          (output): EsmOutput(
[tpu-job]            (dense): Linear(in_features=20480, out_features=5120, bias=True)
[tpu-job]            (dropout): Dropout(p=0.0, inplace=False)
[tpu-job]          )
[tpu-job]          (LayerNorm): LayerNorm((5120,), eps=1e-05, elementwise_affine=True)
[tpu-job]        )
[tpu-job]      )
[tpu-job]      (emb_layer_norm_after): LayerNorm((5120,), eps=1e-05, elementwise_affine=True)
[tpu-job]    )
[tpu-job]    (contact_head): EsmContactPredictionHead(
[tpu-job]      (regression): Linear(in_features=1920, out_features=1, bias=True)
[tpu-job]      (activation): Sigmoid()
[tpu-job]    )
[tpu-job]  )
[tpu-job]  (lm_head): EsmLMHead(
[tpu-job]    (dense): Linear(in_features=5120, out_features=5120, bias=True)
[tpu-job]    (layer_norm): LayerNorm((5120,), eps=1e-05, elementwise_affine=True)
[tpu-job]    (decoder): Linear(in_features=5120, out_features=33, bias=False)
[tpu-job]  )
[tpu-job])>
[tpu-job]INFO:__main__:Loaded model: facebook/esm2_t48_15B_UR50D
[tpu-job]INFO:__main__:Model parameters: <bound method ModuleUtilsMixin.num_parameters of EsmForMaskedLM(
[tpu-job]  (esm): EsmModel(
[tpu-job]    (embeddings): EsmEmbeddings(
[tpu-job]      (word_embeddings): Embedding(33, 5120, padding_idx=1)
[tpu-job]      (dropout): Dropout(p=0.0, inplace=False)
[tpu-job]      (position_embeddings): Embedding(1026, 5120, padding_idx=1)
[tpu-job]    )
[tpu-job]    (encoder): EsmEncoder(
[tpu-job]      (layer): ModuleList(
[tpu-job]        (0-47): 48 x EsmLayer(
[tpu-job]          (attention): EsmAttention(
[tpu-job]            (self): EsmSelfAttention(
[tpu-job]              (query): Linear(in_features=5120, out_features=5120, bias=True)
[tpu-job]              (key): Linear(in_features=5120, out_features=5120, bias=True)
[tpu-job]              (value): Linear(in_features=5120, out_features=5120, bias=True)
[tpu-job]              (dropout): Dropout(p=0.0, inplace=False)
[tpu-job]              (rotary_embeddings): RotaryEmbedding()
[tpu-job]            )
[tpu-job]            (output): EsmSelfOutput(
[tpu-job]              (dense): Linear(in_features=5120, out_features=5120, bias=True)
[tpu-job]              (dropout): Dropout(p=0.0, inplace=False)
[tpu-job]            )
[tpu-job]            (LayerNorm): LayerNorm((5120,), eps=1e-05, elementwise_affine=True)
[tpu-job]          )
[tpu-job]          (intermediate): EsmIntermediate(
[tpu-job]            (dense): Linear(in_features=5120, out_features=20480, bias=True)
[tpu-job]          )
[tpu-job]          (output): EsmOutput(
[tpu-job]            (dense): Linear(in_features=20480, out_features=5120, bias=True)
[tpu-job]            (dropout): Dropout(p=0.0, inplace=False)
[tpu-job]          )
[tpu-job]          (LayerNorm): LayerNorm((5120,), eps=1e-05, elementwise_affine=True)
[tpu-job]        )
[tpu-job]      )
[tpu-job]      (emb_layer_norm_after): LayerNorm((5120,), eps=1e-05, elementwise_affine=True)
[tpu-job]    )
[tpu-job]    (contact_head): EsmContactPredictionHead(
[tpu-job]      (regression): Linear(in_features=1920, out_features=1, bias=True)
[tpu-job]      (activation): Sigmoid()
[tpu-job]    )
[tpu-job]  )
[tpu-job]  (lm_head): EsmLMHead(
[tpu-job]    (dense): Linear(in_features=5120, out_features=5120, bias=True)
[tpu-job]    (layer_norm): LayerNorm((5120,), eps=1e-05, elementwise_affine=True)
[tpu-job]    (decoder): Linear(in_features=5120, out_features=33, bias=False)
[tpu-job]  )
[tpu-job])>
[tpu-job]INFO:__main__:Loaded model: facebook/esm2_t48_15B_UR50D
[tpu-job]INFO:__main__:Model parameters: <bound method ModuleUtilsMixin.num_parameters of EsmForMaskedLM(
[tpu-job]  (esm): EsmModel(
[tpu-job]    (embeddings): EsmEmbeddings(
[tpu-job]      (word_embeddings): Embedding(33, 5120, padding_idx=1)
[tpu-job]      (dropout): Dropout(p=0.0, inplace=False)
[tpu-job]      (position_embeddings): Embedding(1026, 5120, padding_idx=1)
[tpu-job]    )
[tpu-job]    (encoder): EsmEncoder(
[tpu-job]      (layer): ModuleList(
[tpu-job]        (0-47): 48 x EsmLayer(
[tpu-job]          (attention): EsmAttention(
[tpu-job]            (self): EsmSelfAttention(
[tpu-job]              (query): Linear(in_features=5120, out_features=5120, bias=True)
[tpu-job]              (key): Linear(in_features=5120, out_features=5120, bias=True)
[tpu-job]              (value): Linear(in_features=5120, out_features=5120, bias=True)
[tpu-job]              (dropout): Dropout(p=0.0, inplace=False)
[tpu-job]              (rotary_embeddings): RotaryEmbedding()
[tpu-job]            )
[tpu-job]            (output): EsmSelfOutput(
[tpu-job]              (dense): Linear(in_features=5120, out_features=5120, bias=True)
[tpu-job]              (dropout): Dropout(p=0.0, inplace=False)
[tpu-job]            )
[tpu-job]            (LayerNorm): LayerNorm((5120,), eps=1e-05, elementwise_affine=True)
[tpu-job]          )
[tpu-job]          (intermediate): EsmIntermediate(
[tpu-job]            (dense): Linear(in_features=5120, out_features=20480, bias=True)
[tpu-job]          )
[tpu-job]          (output): EsmOutput(
[tpu-job]            (dense): Linear(in_features=20480, out_features=5120, bias=True)
[tpu-job]            (dropout): Dropout(p=0.0, inplace=False)
[tpu-job]          )
[tpu-job]          (LayerNorm): LayerNorm((5120,), eps=1e-05, elementwise_affine=True)
[tpu-job]        )
[tpu-job]      )
[tpu-job]      (emb_layer_norm_after): LayerNorm((5120,), eps=1e-05, elementwise_affine=True)
[tpu-job]    )
[tpu-job]    (contact_head): EsmContactPredictionHead(
[tpu-job]      (regression): Linear(in_features=1920, out_features=1, bias=True)
[tpu-job]      (activation): Sigmoid()
[tpu-job]    )
[tpu-job]  )
[tpu-job]  (lm_head): EsmLMHead(
[tpu-job]    (dense): Linear(in_features=5120, out_features=5120, bias=True)
[tpu-job]    (layer_norm): LayerNorm((5120,), eps=1e-05, elementwise_affine=True)
[tpu-job]    (decoder): Linear(in_features=5120, out_features=33, bias=False)
[tpu-job]  )
[tpu-job])>
[tpu-job]INFO:__main__:Loaded model: facebook/esm2_t48_15B_UR50D
[tpu-job]INFO:__main__:Model parameters: <bound method ModuleUtilsMixin.num_parameters of EsmForMaskedLM(
[tpu-job]  (esm): EsmModel(
[tpu-job]    (embeddings): EsmEmbeddings(
[tpu-job]      (word_embeddings): Embedding(33, 5120, padding_idx=1)
[tpu-job]      (dropout): Dropout(p=0.0, inplace=False)
[tpu-job]      (position_embeddings): Embedding(1026, 5120, padding_idx=1)
[tpu-job]    )
[tpu-job]    (encoder): EsmEncoder(
[tpu-job]      (layer): ModuleList(
[tpu-job]        (0-47): 48 x EsmLayer(
[tpu-job]          (attention): EsmAttention(
[tpu-job]            (self): EsmSelfAttention(
[tpu-job]              (query): Linear(in_features=5120, out_features=5120, bias=True)
[tpu-job]              (key): Linear(in_features=5120, out_features=5120, bias=True)
[tpu-job]              (value): Linear(in_features=5120, out_features=5120, bias=True)
[tpu-job]              (dropout): Dropout(p=0.0, inplace=False)
[tpu-job]              (rotary_embeddings): RotaryEmbedding()
[tpu-job]            )
[tpu-job]            (output): EsmSelfOutput(
[tpu-job]              (dense): Linear(in_features=5120, out_features=5120, bias=True)
[tpu-job]              (dropout): Dropout(p=0.0, inplace=False)
[tpu-job]            )
[tpu-job]            (LayerNorm): LayerNorm((5120,), eps=1e-05, elementwise_affine=True)
[tpu-job]          )
[tpu-job]          (intermediate): EsmIntermediate(
[tpu-job]            (dense): Linear(in_features=5120, out_features=20480, bias=True)
[tpu-job]          )
[tpu-job]          (output): EsmOutput(
[tpu-job]            (dense): Linear(in_features=20480, out_features=5120, bias=True)
[tpu-job]            (dropout): Dropout(p=0.0, inplace=False)
[tpu-job]          )
[tpu-job]          (LayerNorm): LayerNorm((5120,), eps=1e-05, elementwise_affine=True)
[tpu-job]        )
[tpu-job]      )
[tpu-job]      (emb_layer_norm_after): LayerNorm((5120,), eps=1e-05, elementwise_affine=True)
[tpu-job]    )
[tpu-job]    (contact_head): EsmContactPredictionHead(
[tpu-job]      (regression): Linear(in_features=1920, out_features=1, bias=True)
[tpu-job]      (activation): Sigmoid()
[tpu-job]    )
[tpu-job]  )
[tpu-job]  (lm_head): EsmLMHead(
[tpu-job]    (dense): Linear(in_features=5120, out_features=5120, bias=True)
[tpu-job]    (layer_norm): LayerNorm((5120,), eps=1e-05, elementwise_affine=True)
[tpu-job]    (decoder): Linear(in_features=5120, out_features=33, bias=False)
[tpu-job]  )
[tpu-job])>
[tpu-job]INFO:__main__:Loaded model: facebook/esm2_t48_15B_UR50D
[tpu-job]INFO:__main__:Model parameters: <bound method ModuleUtilsMixin.num_parameters of EsmForMaskedLM(
[tpu-job]  (esm): EsmModel(
[tpu-job]    (embeddings): EsmEmbeddings(
[tpu-job]      (word_embeddings): Embedding(33, 5120, padding_idx=1)
[tpu-job]      (dropout): Dropout(p=0.0, inplace=False)
[tpu-job]      (position_embeddings): Embedding(1026, 5120, padding_idx=1)
[tpu-job]    )
[tpu-job]    (encoder): EsmEncoder(
[tpu-job]      (layer): ModuleList(
[tpu-job]        (0-47): 48 x EsmLayer(
[tpu-job]          (attention): EsmAttention(
[tpu-job]            (self): EsmSelfAttention(
[tpu-job]              (query): Linear(in_features=5120, out_features=5120, bias=True)
[tpu-job]              (key): Linear(in_features=5120, out_features=5120, bias=True)
[tpu-job]              (value): Linear(in_features=5120, out_features=5120, bias=True)
[tpu-job]              (dropout): Dropout(p=0.0, inplace=False)
[tpu-job]              (rotary_embeddings): RotaryEmbedding()
[tpu-job]            )
[tpu-job]            (output): EsmSelfOutput(
[tpu-job]              (dense): Linear(in_features=5120, out_features=5120, bias=True)
[tpu-job]              (dropout): Dropout(p=0.0, inplace=False)
[tpu-job]            )
[tpu-job]            (LayerNorm): LayerNorm((5120,), eps=1e-05, elementwise_affine=True)
[tpu-job]          )
[tpu-job]          (intermediate): EsmIntermediate(
[tpu-job]            (dense): Linear(in_features=5120, out_features=20480, bias=True)
[tpu-job]          )
[tpu-job]          (output): EsmOutput(
[tpu-job]            (dense): Linear(in_features=20480, out_features=5120, bias=True)
[tpu-job]            (dropout): Dropout(p=0.0, inplace=False)
[tpu-job]          )
[tpu-job]          (LayerNorm): LayerNorm((5120,), eps=1e-05, elementwise_affine=True)
[tpu-job]        )
[tpu-job]      )
[tpu-job]      (emb_layer_norm_after): LayerNorm((5120,), eps=1e-05, elementwise_affine=True)
[tpu-job]    )
[tpu-job]    (contact_head): EsmContactPredictionHead(
[tpu-job]      (regression): Linear(in_features=1920, out_features=1, bias=True)
[tpu-job]      (activation): Sigmoid()
[tpu-job]    )
[tpu-job]  )
[tpu-job]  (lm_head): EsmLMHead(
[tpu-job]    (dense): Linear(in_features=5120, out_features=5120, bias=True)
[tpu-job]    (layer_norm): LayerNorm((5120,), eps=1e-05, elementwise_affine=True)
[tpu-job]    (decoder): Linear(in_features=5120, out_features=33, bias=False)
[tpu-job]  )
[tpu-job])>
[tpu-job]INFO:__main__:Loaded model: facebook/esm2_t48_15B_UR50D
[tpu-job]INFO:__main__:Model parameters: <bound method ModuleUtilsMixin.num_parameters of EsmForMaskedLM(
[tpu-job]  (esm): EsmModel(
[tpu-job]    (embeddings): EsmEmbeddings(
[tpu-job]      (word_embeddings): Embedding(33, 5120, padding_idx=1)
[tpu-job]      (dropout): Dropout(p=0.0, inplace=False)
[tpu-job]      (position_embeddings): Embedding(1026, 5120, padding_idx=1)
[tpu-job]    )
[tpu-job]    (encoder): EsmEncoder(
[tpu-job]      (layer): ModuleList(
[tpu-job]        (0-47): 48 x EsmLayer(
[tpu-job]          (attention): EsmAttention(
[tpu-job]            (self): EsmSelfAttention(
[tpu-job]              (query): Linear(in_features=5120, out_features=5120, bias=True)
[tpu-job]              (key): Linear(in_features=5120, out_features=5120, bias=True)
[tpu-job]              (value): Linear(in_features=5120, out_features=5120, bias=True)
[tpu-job]              (dropout): Dropout(p=0.0, inplace=False)
[tpu-job]              (rotary_embeddings): RotaryEmbedding()
[tpu-job]            )
[tpu-job]            (output): EsmSelfOutput(
[tpu-job]              (dense): Linear(in_features=5120, out_features=5120, bias=True)
[tpu-job]              (dropout): Dropout(p=0.0, inplace=False)
[tpu-job]            )
[tpu-job]            (LayerNorm): LayerNorm((5120,), eps=1e-05, elementwise_affine=True)
[tpu-job]          )
[tpu-job]          (intermediate): EsmIntermediate(
[tpu-job]            (dense): Linear(in_features=5120, out_features=20480, bias=True)
[tpu-job]          )
[tpu-job]          (output): EsmOutput(
[tpu-job]            (dense): Linear(in_features=20480, out_features=5120, bias=True)
[tpu-job]            (dropout): Dropout(p=0.0, inplace=False)
[tpu-job]          )
[tpu-job]          (LayerNorm): LayerNorm((5120,), eps=1e-05, elementwise_affine=True)
[tpu-job]        )
[tpu-job]      )
[tpu-job]      (emb_layer_norm_after): LayerNorm((5120,), eps=1e-05, elementwise_affine=True)
[tpu-job]    )
[tpu-job]    (contact_head): EsmContactPredictionHead(
[tpu-job]      (regression): Linear(in_features=1920, out_features=1, bias=True)
[tpu-job]      (activation): Sigmoid()
[tpu-job]    )
[tpu-job]  )
[tpu-job]  (lm_head): EsmLMHead(
[tpu-job]    (dense): Linear(in_features=5120, out_features=5120, bias=True)
[tpu-job]    (layer_norm): LayerNorm((5120,), eps=1e-05, elementwise_affine=True)
[tpu-job]    (decoder): Linear(in_features=5120, out_features=33, bias=False)
[tpu-job]  )
[tpu-job])>
[tpu-job]INFO:__main__:Loaded model: facebook/esm2_t48_15B_UR50D
[tpu-job]INFO:__main__:Model parameters: <bound method ModuleUtilsMixin.num_parameters of EsmForMaskedLM(
[tpu-job]  (esm): EsmModel(
[tpu-job]    (embeddings): EsmEmbeddings(
[tpu-job]      (word_embeddings): Embedding(33, 5120, padding_idx=1)
[tpu-job]      (dropout): Dropout(p=0.0, inplace=False)
[tpu-job]      (position_embeddings): Embedding(1026, 5120, padding_idx=1)
[tpu-job]    )
[tpu-job]    (encoder): EsmEncoder(
[tpu-job]      (layer): ModuleList(
[tpu-job]        (0-47): 48 x EsmLayer(
[tpu-job]          (attention): EsmAttention(
[tpu-job]            (self): EsmSelfAttention(
[tpu-job]              (query): Linear(in_features=5120, out_features=5120, bias=True)
[tpu-job]              (key): Linear(in_features=5120, out_features=5120, bias=True)
[tpu-job]              (value): Linear(in_features=5120, out_features=5120, bias=True)
[tpu-job]              (dropout): Dropout(p=0.0, inplace=False)
[tpu-job]              (rotary_embeddings): RotaryEmbedding()
[tpu-job]            )
[tpu-job]            (output): EsmSelfOutput(
[tpu-job]              (dense): Linear(in_features=5120, out_features=5120, bias=True)
[tpu-job]              (dropout): Dropout(p=0.0, inplace=False)
[tpu-job]            )
[tpu-job]            (LayerNorm): LayerNorm((5120,), eps=1e-05, elementwise_affine=True)
[tpu-job]          )
[tpu-job]          (intermediate): EsmIntermediate(
[tpu-job]            (dense): Linear(in_features=5120, out_features=20480, bias=True)
[tpu-job]          )
[tpu-job]          (output): EsmOutput(
[tpu-job]            (dense): Linear(in_features=20480, out_features=5120, bias=True)
[tpu-job]            (dropout): Dropout(p=0.0, inplace=False)
[tpu-job]          )
[tpu-job]          (LayerNorm): LayerNorm((5120,), eps=1e-05, elementwise_affine=True)
[tpu-job]        )
[tpu-job]      )
[tpu-job]      (emb_layer_norm_after): LayerNorm((5120,), eps=1e-05, elementwise_affine=True)
[tpu-job]    )
[tpu-job]    (contact_head): EsmContactPredictionHead(
[tpu-job]      (regression): Linear(in_features=1920, out_features=1, bias=True)
[tpu-job]      (activation): Sigmoid()
[tpu-job]    )
[tpu-job]  )
[tpu-job]  (lm_head): EsmLMHead(
[tpu-job]    (dense): Linear(in_features=5120, out_features=5120, bias=True)
[tpu-job]    (layer_norm): LayerNorm((5120,), eps=1e-05, elementwise_affine=True)
[tpu-job]    (decoder): Linear(in_features=5120, out_features=33, bias=False)
[tpu-job]  )
[tpu-job])>
[tpu-job]INFO:__main__:Loaded model: facebook/esm2_t48_15B_UR50D
[tpu-job]INFO:__main__:Model parameters: <bound method ModuleUtilsMixin.num_parameters of EsmForMaskedLM(
[tpu-job]  (esm): EsmModel(
[tpu-job]    (embeddings): EsmEmbeddings(
[tpu-job]      (word_embeddings): Embedding(33, 5120, padding_idx=1)
[tpu-job]      (dropout): Dropout(p=0.0, inplace=False)
[tpu-job]      (position_embeddings): Embedding(1026, 5120, padding_idx=1)
[tpu-job]    )
[tpu-job]    (encoder): EsmEncoder(
[tpu-job]      (layer): ModuleList(
[tpu-job]        (0-47): 48 x EsmLayer(
[tpu-job]          (attention): EsmAttention(
[tpu-job]            (self): EsmSelfAttention(
[tpu-job]              (query): Linear(in_features=5120, out_features=5120, bias=True)
[tpu-job]              (key): Linear(in_features=5120, out_features=5120, bias=True)
[tpu-job]              (value): Linear(in_features=5120, out_features=5120, bias=True)
[tpu-job]              (dropout): Dropout(p=0.0, inplace=False)
[tpu-job]              (rotary_embeddings): RotaryEmbedding()
[tpu-job]            )
[tpu-job]            (output): EsmSelfOutput(
[tpu-job]              (dense): Linear(in_features=5120, out_features=5120, bias=True)
[tpu-job]              (dropout): Dropout(p=0.0, inplace=False)
[tpu-job]            )
[tpu-job]            (LayerNorm): LayerNorm((5120,), eps=1e-05, elementwise_affine=True)
[tpu-job]          )
[tpu-job]          (intermediate): EsmIntermediate(
[tpu-job]            (dense): Linear(in_features=5120, out_features=20480, bias=True)
[tpu-job]          )
[tpu-job]          (output): EsmOutput(
[tpu-job]            (dense): Linear(in_features=20480, out_features=5120, bias=True)
[tpu-job]            (dropout): Dropout(p=0.0, inplace=False)
[tpu-job]          )
[tpu-job]          (LayerNorm): LayerNorm((5120,), eps=1e-05, elementwise_affine=True)
[tpu-job]        )
[tpu-job]      )
[tpu-job]      (emb_layer_norm_after): LayerNorm((5120,), eps=1e-05, elementwise_affine=True)
[tpu-job]    )
[tpu-job]    (contact_head): EsmContactPredictionHead(
[tpu-job]      (regression): Linear(in_features=1920, out_features=1, bias=True)
[tpu-job]      (activation): Sigmoid()
[tpu-job]    )
[tpu-job]  )
[tpu-job]  (lm_head): EsmLMHead(
[tpu-job]    (dense): Linear(in_features=5120, out_features=5120, bias=True)
[tpu-job]    (layer_norm): LayerNorm((5120,), eps=1e-05, elementwise_affine=True)
[tpu-job]    (decoder): Linear(in_features=5120, out_features=33, bias=False)
[tpu-job]  )
[tpu-job])>
[tpu-job]INFO:__main__:Loaded model: facebook/esm2_t48_15B_UR50D
[tpu-job]INFO:__main__:Model parameters: <bound method ModuleUtilsMixin.num_parameters of EsmForMaskedLM(
[tpu-job]  (esm): EsmModel(
[tpu-job]    (embeddings): EsmEmbeddings(
[tpu-job]      (word_embeddings): Embedding(33, 5120, padding_idx=1)
[tpu-job]      (dropout): Dropout(p=0.0, inplace=False)
[tpu-job]      (position_embeddings): Embedding(1026, 5120, padding_idx=1)
[tpu-job]    )
[tpu-job]    (encoder): EsmEncoder(
[tpu-job]      (layer): ModuleList(
[tpu-job]        (0-47): 48 x EsmLayer(
[tpu-job]          (attention): EsmAttention(
[tpu-job]            (self): EsmSelfAttention(
[tpu-job]              (query): Linear(in_features=5120, out_features=5120, bias=True)
[tpu-job]              (key): Linear(in_features=5120, out_features=5120, bias=True)
[tpu-job]              (value): Linear(in_features=5120, out_features=5120, bias=True)
[tpu-job]              (dropout): Dropout(p=0.0, inplace=False)
[tpu-job]              (rotary_embeddings): RotaryEmbedding()
[tpu-job]            )
[tpu-job]            (output): EsmSelfOutput(
[tpu-job]              (dense): Linear(in_features=5120, out_features=5120, bias=True)
[tpu-job]              (dropout): Dropout(p=0.0, inplace=False)
[tpu-job]            )
[tpu-job]            (LayerNorm): LayerNorm((5120,), eps=1e-05, elementwise_affine=True)
[tpu-job]          )
[tpu-job]          (intermediate): EsmIntermediate(
[tpu-job]            (dense): Linear(in_features=5120, out_features=20480, bias=True)
[tpu-job]          )
[tpu-job]          (output): EsmOutput(
[tpu-job]            (dense): Linear(in_features=20480, out_features=5120, bias=True)
[tpu-job]            (dropout): Dropout(p=0.0, inplace=False)
[tpu-job]          )
[tpu-job]          (LayerNorm): LayerNorm((5120,), eps=1e-05, elementwise_affine=True)
[tpu-job]        )
[tpu-job]      )
[tpu-job]      (emb_layer_norm_after): LayerNorm((5120,), eps=1e-05, elementwise_affine=True)
[tpu-job]    )
[tpu-job]    (contact_head): EsmContactPredictionHead(
[tpu-job]      (regression): Linear(in_features=1920, out_features=1, bias=True)
[tpu-job]      (activation): Sigmoid()
[tpu-job]    )
[tpu-job]  )
[tpu-job]  (lm_head): EsmLMHead(
[tpu-job]    (dense): Linear(in_features=5120, out_features=5120, bias=True)
[tpu-job]    (layer_norm): LayerNorm((5120,), eps=1e-05, elementwise_affine=True)
[tpu-job]    (decoder): Linear(in_features=5120, out_features=33, bias=False)
[tpu-job]  )
[tpu-job])>
[tpu-job]INFO:__main__:Loaded model: facebook/esm2_t48_15B_UR50D
[tpu-job]INFO:__main__:Model parameters: <bound method ModuleUtilsMixin.num_parameters of EsmForMaskedLM(
[tpu-job]  (esm): EsmModel(
[tpu-job]    (embeddings): EsmEmbeddings(
[tpu-job]      (word_embeddings): Embedding(33, 5120, padding_idx=1)
[tpu-job]      (dropout): Dropout(p=0.0, inplace=False)
[tpu-job]      (position_embeddings): Embedding(1026, 5120, padding_idx=1)
[tpu-job]    )
[tpu-job]    (encoder): EsmEncoder(
[tpu-job]      (layer): ModuleList(
[tpu-job]        (0-47): 48 x EsmLayer(
[tpu-job]          (attention): EsmAttention(
[tpu-job]            (self): EsmSelfAttention(
[tpu-job]              (query): Linear(in_features=5120, out_features=5120, bias=True)
[tpu-job]              (key): Linear(in_features=5120, out_features=5120, bias=True)
[tpu-job]              (value): Linear(in_features=5120, out_features=5120, bias=True)
[tpu-job]              (dropout): Dropout(p=0.0, inplace=False)
[tpu-job]              (rotary_embeddings): RotaryEmbedding()
[tpu-job]            )
[tpu-job]            (output): EsmSelfOutput(
[tpu-job]              (dense): Linear(in_features=5120, out_features=5120, bias=True)
[tpu-job]              (dropout): Dropout(p=0.0, inplace=False)
[tpu-job]            )
[tpu-job]            (LayerNorm): LayerNorm((5120,), eps=1e-05, elementwise_affine=True)
[tpu-job]          )
[tpu-job]          (intermediate): EsmIntermediate(
[tpu-job]            (dense): Linear(in_features=5120, out_features=20480, bias=True)
[tpu-job]          )
[tpu-job]          (output): EsmOutput(
[tpu-job]            (dense): Linear(in_features=20480, out_features=5120, bias=True)
[tpu-job]            (dropout): Dropout(p=0.0, inplace=False)
[tpu-job]          )
[tpu-job]          (LayerNorm): LayerNorm((5120,), eps=1e-05, elementwise_affine=True)
[tpu-job]        )
[tpu-job]      )
[tpu-job]      (emb_layer_norm_after): LayerNorm((5120,), eps=1e-05, elementwise_affine=True)
[tpu-job]    )
[tpu-job]    (contact_head): EsmContactPredictionHead(
[tpu-job]      (regression): Linear(in_features=1920, out_features=1, bias=True)
[tpu-job]      (activation): Sigmoid()
[tpu-job]    )
[tpu-job]  )
[tpu-job]  (lm_head): EsmLMHead(
[tpu-job]    (dense): Linear(in_features=5120, out_features=5120, bias=True)
[tpu-job]    (layer_norm): LayerNorm((5120,), eps=1e-05, elementwise_affine=True)
[tpu-job]    (decoder): Linear(in_features=5120, out_features=33, bias=False)
[tpu-job]  )
[tpu-job])>
[tpu-job]INFO:__main__:Loaded model: facebook/esm2_t48_15B_UR50D
[tpu-job]INFO:__main__:Model parameters: <bound method ModuleUtilsMixin.num_parameters of EsmForMaskedLM(
[tpu-job]  (esm): EsmModel(
[tpu-job]    (embeddings): EsmEmbeddings(
[tpu-job]      (word_embeddings): Embedding(33, 5120, padding_idx=1)
[tpu-job]      (dropout): Dropout(p=0.0, inplace=False)
[tpu-job]      (position_embeddings): Embedding(1026, 5120, padding_idx=1)
[tpu-job]    )
[tpu-job]    (encoder): EsmEncoder(
[tpu-job]      (layer): ModuleList(
[tpu-job]        (0-47): 48 x EsmLayer(
[tpu-job]          (attention): EsmAttention(
[tpu-job]            (self): EsmSelfAttention(
[tpu-job]              (query): Linear(in_features=5120, out_features=5120, bias=True)
[tpu-job]              (key): Linear(in_features=5120, out_features=5120, bias=True)
[tpu-job]              (value): Linear(in_features=5120, out_features=5120, bias=True)
[tpu-job]              (dropout): Dropout(p=0.0, inplace=False)
[tpu-job]              (rotary_embeddings): RotaryEmbedding()
[tpu-job]            )
[tpu-job]            (output): EsmSelfOutput(
[tpu-job]              (dense): Linear(in_features=5120, out_features=5120, bias=True)
[tpu-job]              (dropout): Dropout(p=0.0, inplace=False)
[tpu-job]            )
[tpu-job]            (LayerNorm): LayerNorm((5120,), eps=1e-05, elementwise_affine=True)
[tpu-job]          )
[tpu-job]          (intermediate): EsmIntermediate(
[tpu-job]            (dense): Linear(in_features=5120, out_features=20480, bias=True)
[tpu-job]          )
[tpu-job]          (output): EsmOutput(
[tpu-job]            (dense): Linear(in_features=20480, out_features=5120, bias=True)
[tpu-job]            (dropout): Dropout(p=0.0, inplace=False)
[tpu-job]          )
[tpu-job]          (LayerNorm): LayerNorm((5120,), eps=1e-05, elementwise_affine=True)
[tpu-job]        )
[tpu-job]      )
[tpu-job]      (emb_layer_norm_after): LayerNorm((5120,), eps=1e-05, elementwise_affine=True)
[tpu-job]    )
[tpu-job]    (contact_head): EsmContactPredictionHead(
[tpu-job]      (regression): Linear(in_features=1920, out_features=1, bias=True)
[tpu-job]      (activation): Sigmoid()
[tpu-job]    )
[tpu-job]  )
[tpu-job]  (lm_head): EsmLMHead(
[tpu-job]    (dense): Linear(in_features=5120, out_features=5120, bias=True)
[tpu-job]    (layer_norm): LayerNorm((5120,), eps=1e-05, elementwise_affine=True)
[tpu-job]    (decoder): Linear(in_features=5120, out_features=33, bias=False)
[tpu-job]  )
[tpu-job])>
[tpu-job]INFO:__main__:Loaded model: facebook/esm2_t48_15B_UR50D
[tpu-job]INFO:__main__:Model parameters: <bound method ModuleUtilsMixin.num_parameters of EsmForMaskedLM(
[tpu-job]  (esm): EsmModel(
[tpu-job]    (embeddings): EsmEmbeddings(
[tpu-job]      (word_embeddings): Embedding(33, 5120, padding_idx=1)
[tpu-job]      (dropout): Dropout(p=0.0, inplace=False)
[tpu-job]      (position_embeddings): Embedding(1026, 5120, padding_idx=1)
[tpu-job]    )
[tpu-job]    (encoder): EsmEncoder(
[tpu-job]      (layer): ModuleList(
[tpu-job]        (0-47): 48 x EsmLayer(
[tpu-job]          (attention): EsmAttention(
[tpu-job]            (self): EsmSelfAttention(
[tpu-job]              (query): Linear(in_features=5120, out_features=5120, bias=True)
[tpu-job]              (key): Linear(in_features=5120, out_features=5120, bias=True)
[tpu-job]              (value): Linear(in_features=5120, out_features=5120, bias=True)
[tpu-job]              (dropout): Dropout(p=0.0, inplace=False)
[tpu-job]              (rotary_embeddings): RotaryEmbedding()
[tpu-job]            )
[tpu-job]            (output): EsmSelfOutput(
[tpu-job]              (dense): Linear(in_features=5120, out_features=5120, bias=True)
[tpu-job]              (dropout): Dropout(p=0.0, inplace=False)
[tpu-job]            )
[tpu-job]            (LayerNorm): LayerNorm((5120,), eps=1e-05, elementwise_affine=True)
[tpu-job]          )
[tpu-job]          (intermediate): EsmIntermediate(
[tpu-job]            (dense): Linear(in_features=5120, out_features=20480, bias=True)
[tpu-job]          )
[tpu-job]          (output): EsmOutput(
[tpu-job]            (dense): Linear(in_features=20480, out_features=5120, bias=True)
[tpu-job]            (dropout): Dropout(p=0.0, inplace=False)
[tpu-job]          )
[tpu-job]          (LayerNorm): LayerNorm((5120,), eps=1e-05, elementwise_affine=True)
[tpu-job]        )
[tpu-job]      )
[tpu-job]      (emb_layer_norm_after): LayerNorm((5120,), eps=1e-05, elementwise_affine=True)
[tpu-job]    )
[tpu-job]    (contact_head): EsmContactPredictionHead(
[tpu-job]      (regression): Linear(in_features=1920, out_features=1, bias=True)
[tpu-job]      (activation): Sigmoid()
[tpu-job]    )
[tpu-job]  )
[tpu-job]  (lm_head): EsmLMHead(
[tpu-job]    (dense): Linear(in_features=5120, out_features=5120, bias=True)
[tpu-job]    (layer_norm): LayerNorm((5120,), eps=1e-05, elementwise_affine=True)
[tpu-job]    (decoder): Linear(in_features=5120, out_features=33, bias=False)
[tpu-job]  )
[tpu-job])>
[tpu-job]INFO:__main__:Loaded model: facebook/esm2_t48_15B_UR50D
[tpu-job]INFO:__main__:Model parameters: <bound method ModuleUtilsMixin.num_parameters of EsmForMaskedLM(
[tpu-job]  (esm): EsmModel(
[tpu-job]    (embeddings): EsmEmbeddings(
[tpu-job]      (word_embeddings): Embedding(33, 5120, padding_idx=1)
[tpu-job]      (dropout): Dropout(p=0.0, inplace=False)
[tpu-job]      (position_embeddings): Embedding(1026, 5120, padding_idx=1)
[tpu-job]    )
[tpu-job]    (encoder): EsmEncoder(
[tpu-job]      (layer): ModuleList(
[tpu-job]        (0-47): 48 x EsmLayer(
[tpu-job]          (attention): EsmAttention(
[tpu-job]            (self): EsmSelfAttention(
[tpu-job]              (query): Linear(in_features=5120, out_features=5120, bias=True)
[tpu-job]              (key): Linear(in_features=5120, out_features=5120, bias=True)
[tpu-job]              (value): Linear(in_features=5120, out_features=5120, bias=True)
[tpu-job]              (dropout): Dropout(p=0.0, inplace=False)
[tpu-job]              (rotary_embeddings): RotaryEmbedding()
[tpu-job]            )
[tpu-job]            (output): EsmSelfOutput(
[tpu-job]              (dense): Linear(in_features=5120, out_features=5120, bias=True)
[tpu-job]              (dropout): Dropout(p=0.0, inplace=False)
[tpu-job]            )
[tpu-job]            (LayerNorm): LayerNorm((5120,), eps=1e-05, elementwise_affine=True)
[tpu-job]          )
[tpu-job]          (intermediate): EsmIntermediate(
[tpu-job]            (dense): Linear(in_features=5120, out_features=20480, bias=True)
[tpu-job]          )
[tpu-job]          (output): EsmOutput(
[tpu-job]            (dense): Linear(in_features=20480, out_features=5120, bias=True)
[tpu-job]            (dropout): Dropout(p=0.0, inplace=False)
[tpu-job]          )
[tpu-job]          (LayerNorm): LayerNorm((5120,), eps=1e-05, elementwise_affine=True)
[tpu-job]        )
[tpu-job]      )
[tpu-job]      (emb_layer_norm_after): LayerNorm((5120,), eps=1e-05, elementwise_affine=True)
[tpu-job]    )
[tpu-job]    (contact_head): EsmContactPredictionHead(
[tpu-job]      (regression): Linear(in_features=1920, out_features=1, bias=True)
[tpu-job]      (activation): Sigmoid()
[tpu-job]    )
[tpu-job]  )
[tpu-job]  (lm_head): EsmLMHead(
[tpu-job]    (dense): Linear(in_features=5120, out_features=5120, bias=True)
[tpu-job]    (layer_norm): LayerNorm((5120,), eps=1e-05, elementwise_affine=True)
[tpu-job]    (decoder): Linear(in_features=5120, out_features=33, bias=False)
[tpu-job]  )
[tpu-job])>
[tpu-job]INFO:__main__:Logical mesh shape: OrderedDict([('fsdp', 256), ('tensor', 1)])
[tpu-job]INFO:__main__:Input sharding: ShardingSpec(mesh=<torch_xla.distributed.spmd.xla_sharding.Mesh object at 0x7994ab93fd10>, partition_spec=('fsdp', None), minibatch=False, _tile_assignment=[[0], [1], [2], [3], [4], [5], [6], [7], [8], 
…
[tpu-job]INFO:__main__:ESM2 classes to wrap: {<class 'transformers.models.esm.modeling_esm.EsmOutput'>, <class 'transformers.models.esm.modeling_esm.EsmSelfOutput'>, <class 'transformers.models.esm.modeling_esm.EsmSelfAttention'>, <class 'transformers.models.esm.modeling_esm.EsmLMHead'>, <class 'transformers.models.esm.modeling_esm.EsmIntermediate'>, <class 'transformers.models.esm.modeling_esm.EsmEmbeddings'>}
[tpu-job]INFO:__main__:Enabling gradient checkpointing
[tpu-job]INFO:__main__:Loaded model: facebook/esm2_t48_15B_UR50D
[tpu-job]INFO:__main__:Model parameters: <bound method ModuleUtilsMixin.num_parameters of EsmForMaskedLM(
[tpu-job]  (esm): EsmModel(
[tpu-job]    (embeddings): EsmEmbeddings(
[tpu-job]      (word_embeddings): Embedding(33, 5120, padding_idx=1)
[tpu-job]      (dropout): Dropout(p=0.0, inplace=False)
[tpu-job]      (position_embeddings): Embedding(1026, 5120, padding_idx=1)
[tpu-job]    )
[tpu-job]    (encoder): EsmEncoder(
[tpu-job]      (layer): ModuleList(
[tpu-job]        (0-47): 48 x EsmLayer(
[tpu-job]          (attention): EsmAttention(
[tpu-job]            (self): EsmSelfAttention(
[tpu-job]              (query): Linear(in_features=5120, out_features=5120, bias=True)
[tpu-job]              (key): Linear(in_features=5120, out_features=5120, bias=True)
[tpu-job]              (value): Linear(in_features=5120, out_features=5120, bias=True)
[tpu-job]              (dropout): Dropout(p=0.0, inplace=False)
[tpu-job]              (rotary_embeddings): RotaryEmbedding()
[tpu-job]            )
[tpu-job]            (output): EsmSelfOutput(
[tpu-job]              (dense): Linear(in_features=5120, out_features=5120, bias=True)
[tpu-job]              (dropout): Dropout(p=0.0, inplace=False)
[tpu-job]            )
[tpu-job]            (LayerNorm): LayerNorm((5120,), eps=1e-05, elementwise_affine=True)
[tpu-job]          )
[tpu-job]          (intermediate): EsmIntermediate(
[tpu-job]            (dense): Linear(in_features=5120, out_features=20480, bias=True)
[tpu-job]          )
[tpu-job]          (output): EsmOutput(
[tpu-job]            (dense): Linear(in_features=20480, out_features=5120, bias=True)
[tpu-job]            (dropout): Dropout(p=0.0, inplace=False)
[tpu-job]          )
[tpu-job]          (LayerNorm): LayerNorm((5120,), eps=1e-05, elementwise_affine=True)
[tpu-job]        )
[tpu-job]      )
[tpu-job]      (emb_layer_norm_after): LayerNorm((5120,), eps=1e-05, elementwise_affine=True)
[tpu-job]    )
[tpu-job]    (contact_head): EsmContactPredictionHead(
[tpu-job]      (regression): Linear(in_features=1920, out_features=1, bias=True)
[tpu-job]      (activation): Sigmoid()
[tpu-job]    )
[tpu-job]  )
[tpu-job]  (lm_head): EsmLMHead(
[tpu-job]    (dense): Linear(in_features=5120, out_features=5120, bias=True)
[tpu-job]    (layer_norm): LayerNorm((5120,), eps=1e-05, elementwise_affine=True)
[tpu-job]    (decoder): Linear(in_features=5120, out_features=33, bias=False)
[tpu-job]  )
[tpu-job])>
[tpu-job]INFO:__main__:Logical mesh shape: OrderedDict([('fsdp', 256), ('tensor', 1)])
[tpu-job]INFO:__main__:Input sharding: ShardingSpec(mesh=<torch_xla.distributed.spmd.xla_sharding.Mesh object at 0x7be889bc0a50>, partition_spec=('fsdp', None), minibatch=False, _tile_assignment=[[0], [1], [2], [3], [4], [5], [6], [7], [8], 
…
[tpu-job]INFO:__main__:ESM2 classes to wrap: {<class 'transformers.models.esm.modeling_esm.EsmEmbeddings'>, <class 'transformers.models.esm.modeling_esm.EsmIntermediate'>, <class 'transformers.models.esm.modeling_esm.EsmLMHead'>, <class 'transformers.models.esm.modeling_esm.EsmSelfOutput'>, <class 'transformers.models.esm.modeling_esm.EsmOutput'>, <class 'transformers.models.esm.modeling_esm.EsmSelfAttention'>}
[tpu-job]INFO:__main__:Enabling gradient checkpointing
[tpu-job]INFO:__main__:Loaded model: facebook/esm2_t48_15B_UR50D
[tpu-job]INFO:__main__:Model parameters: <bound method ModuleUtilsMixin.num_parameters of EsmForMaskedLM(
[tpu-job]  (esm): EsmModel(
[tpu-job]    (embeddings): EsmEmbeddings(
[tpu-job]      (word_embeddings): Embedding(33, 5120, padding_idx=1)
[tpu-job]      (dropout): Dropout(p=0.0, inplace=False)
[tpu-job]      (position_embeddings): Embedding(1026, 5120, padding_idx=1)
[tpu-job]    )
[tpu-job]    (encoder): EsmEncoder(
[tpu-job]      (layer): ModuleList(
[tpu-job]        (0-47): 48 x EsmLayer(
[tpu-job]          (attention): EsmAttention(
[tpu-job]            (self): EsmSelfAttention(
[tpu-job]              (query): Linear(in_features=5120, out_features=5120, bias=True)
[tpu-job]              (key): Linear(in_features=5120, out_features=5120, bias=True)
[tpu-job]              (value): Linear(in_features=5120, out_features=5120, bias=True)
[tpu-job]              (dropout): Dropout(p=0.0, inplace=False)
[tpu-job]              (rotary_embeddings): RotaryEmbedding()
[tpu-job]            )
[tpu-job]            (output): EsmSelfOutput(
[tpu-job]              (dense): Linear(in_features=5120, out_features=5120, bias=True)
[tpu-job]              (dropout): Dropout(p=0.0, inplace=False)
[tpu-job]            )
[tpu-job]            (LayerNorm): LayerNorm((5120,), eps=1e-05, elementwise_affine=True)
[tpu-job]          )
[tpu-job]          (intermediate): EsmIntermediate(
[tpu-job]            (dense): Linear(in_features=5120, out_features=20480, bias=True)
[tpu-job]          )
[tpu-job]          (output): EsmOutput(
[tpu-job]            (dense): Linear(in_features=20480, out_features=5120, bias=True)
[tpu-job]            (dropout): Dropout(p=0.0, inplace=False)
[tpu-job]          )
[tpu-job]          (LayerNorm): LayerNorm((5120,), eps=1e-05, elementwise_affine=True)
[tpu-job]        )
[tpu-job]      )
[tpu-job]      (emb_layer_norm_after): LayerNorm((5120,), eps=1e-05, elementwise_affine=True)
[tpu-job]    )
[tpu-job]    (contact_head): EsmContactPredictionHead(
[tpu-job]      (regression): Linear(in_features=1920, out_features=1, bias=True)
[tpu-job]      (activation): Sigmoid()
[tpu-job]    )
[tpu-job]  )
[tpu-job]  (lm_head): EsmLMHead(
[tpu-job]    (dense): Linear(in_features=5120, out_features=5120, bias=True)
[tpu-job]    (layer_norm): LayerNorm((5120,), eps=1e-05, elementwise_affine=True)
[tpu-job]    (decoder): Linear(in_features=5120, out_features=33, bias=False)
[tpu-job]  )
[tpu-job])>
[tpu-job]INFO:__main__:Loaded model: facebook/esm2_t48_15B_UR50D
[tpu-job]INFO:__main__:Model parameters: <bound method ModuleUtilsMixin.num_parameters of EsmForMaskedLM(
[tpu-job]  (esm): EsmModel(
[tpu-job]    (embeddings): EsmEmbeddings(
[tpu-job]      (word_embeddings): Embedding(33, 5120, padding_idx=1)
[tpu-job]      (dropout): Dropout(p=0.0, inplace=False)
[tpu-job]      (position_embeddings): Embedding(1026, 5120, padding_idx=1)
[tpu-job]    )
[tpu-job]    (encoder): EsmEncoder(
[tpu-job]      (layer): ModuleList(
[tpu-job]        (0-47): 48 x EsmLayer(
[tpu-job]          (attention): EsmAttention(
[tpu-job]            (self): EsmSelfAttention(
[tpu-job]              (query): Linear(in_features=5120, out_features=5120, bias=True)
[tpu-job]              (key): Linear(in_features=5120, out_features=5120, bias=True)
[tpu-job]              (value): Linear(in_features=5120, out_features=5120, bias=True)
[tpu-job]              (dropout): Dropout(p=0.0, inplace=False)
[tpu-job]              (rotary_embeddings): RotaryEmbedding()
[tpu-job]            )
[tpu-job]            (output): EsmSelfOutput(
[tpu-job]              (dense): Linear(in_features=5120, out_features=5120, bias=True)
[tpu-job]              (dropout): Dropout(p=0.0, inplace=False)
[tpu-job]            )
[tpu-job]            (LayerNorm): LayerNorm((5120,), eps=1e-05, elementwise_affine=True)
[tpu-job]          )
[tpu-job]          (intermediate): EsmIntermediate(
[tpu-job]            (dense): Linear(in_features=5120, out_features=20480, bias=True)
[tpu-job]          )
[tpu-job]          (output): EsmOutput(
[tpu-job]            (dense): Linear(in_features=20480, out_features=5120, bias=True)
[tpu-job]            (dropout): Dropout(p=0.0, inplace=False)
[tpu-job]          )
[tpu-job]          (LayerNorm): LayerNorm((5120,), eps=1e-05, elementwise_affine=True)
[tpu-job]        )
[tpu-job]      )
[tpu-job]      (emb_layer_norm_after): LayerNorm((5120,), eps=1e-05, elementwise_affine=True)
[tpu-job]    )
[tpu-job]    (contact_head): EsmContactPredictionHead(
[tpu-job]      (regression): Linear(in_features=1920, out_features=1, bias=True)
[tpu-job]      (activation): Sigmoid()
[tpu-job]    )
[tpu-job]  )
[tpu-job]  (lm_head): EsmLMHead(
[tpu-job]    (dense): Linear(in_features=5120, out_features=5120, bias=True)
[tpu-job]    (layer_norm): LayerNorm((5120,), eps=1e-05, elementwise_affine=True)
[tpu-job]    (decoder): Linear(in_features=5120, out_features=33, bias=False)
[tpu-job]  )
[tpu-job])>
[tpu-job]INFO:__main__:Logical mesh shape: OrderedDict([('fsdp', 256), ('tensor', 1)])
[tpu-job]INFO:__main__:Input sharding: ShardingSpec(mesh=<torch_xla.distributed.spmd.xla_sharding.Mesh object at 0x79752b35af90>, partition_spec=('fsdp', None), minibatch=False, _tile_assignment=[[0], [1], [2], [3], [4], [5], [6], [7], [8], 
…
rs.models.esm.modeling_esm.EsmLMHead'>, <class 'transformers.models.esm.modeling_esm.EsmSelfOutput'>}
[tpu-job]INFO:__main__:Enabling gradient checkpointing
[tpu-job]INFO:__main__:Loaded model: facebook/esm2_t48_15B_UR50D
[tpu-job]INFO:__main__:Loaded model: facebook/esm2_t48_15B_UR50D
[tpu-job]INFO:__main__:Model parameters: <bound method ModuleUtilsMixin.num_parameters of EsmForMaskedLM(
[tpu-job]INFO:__main__:Model parameters: <bound method ModuleUtilsMixin.num_parameters of EsmForMaskedLM(
[tpu-job]  (esm): EsmModel(
[tpu-job]    (embeddings): EsmEmbeddings(
[tpu-job]      (word_embeddings): Embedding(33, 5120, padding_idx=1)
[tpu-job]      (dropout): Dropout(p=0.0, inplace=False)
[tpu-job]  (esm): EsmModel(
[tpu-job]    (embeddings): EsmEmbeddings(
[tpu-job]      (word_embeddings): Embedding(33, 5120, padding_idx=1)
[tpu-job]      (dropout): Dropout(p=0.0, inplace=False)
[tpu-job]      (position_embeddings): Embedding(1026, 5120, padding_idx=1)
[tpu-job]    )
[tpu-job]    (encoder): EsmEncoder(
[tpu-job]      (layer): ModuleList(
[tpu-job]        (0-47): 48 x EsmLayer(
[tpu-job]          (attention): EsmAttention(
[tpu-job]            (self): EsmSelfAttention(
[tpu-job]              (query): Linear(in_features=5120, out_features=5120, bias=True)
[tpu-job]      (position_embeddings): Embedding(1026, 5120, padding_idx=1)
[tpu-job]    )
[tpu-job]    (encoder): EsmEncoder(
[tpu-job]      (layer): ModuleList(
[tpu-job]        (0-47): 48 x EsmLayer(
[tpu-job]          (attention): EsmAttention(
[tpu-job]            (self): EsmSelfAttention(
[tpu-job]              (query): Linear(in_features=5120, out_features=5120, bias=True)
[tpu-job]              (key): Linear(in_features=5120, out_features=5120, bias=True)
[tpu-job]              (value): Linear(in_features=5120, out_features=5120, bias=True)
[tpu-job]              (dropout): Dropout(p=0.0, inplace=False)
[tpu-job]              (rotary_embeddings): RotaryEmbedding()
[tpu-job]            )
[tpu-job]            (output): EsmSelfOutput(
[tpu-job]              (dense): Linear(in_features=5120, out_features=5120, bias=True)
[tpu-job]              (dropout): Dropout(p=0.0, inplace=False)
[tpu-job]            )
[tpu-job]            (LayerNorm): LayerNorm((5120,), eps=1e-05, elementwise_affine=True)
[tpu-job]          )
[tpu-job]          (intermediate): EsmIntermediate(
[tpu-job]            (dense): Linear(in_features=5120, out_features=20480, bias=True)
[tpu-job]          )
[tpu-job]          (output): EsmOutput(
[tpu-job]            (dense): Linear(in_features=20480, out_features=5120, bias=True)
[tpu-job]            (dropout): Dropout(p=0.0, inplace=False)
[tpu-job]          )
[tpu-job]          (LayerNorm): LayerNorm((5120,), eps=1e-05, elementwise_affine=True)
[tpu-job]        )
[tpu-job]      )
[tpu-job]      (emb_layer_norm_after): LayerNorm((5120,), eps=1e-05, elementwise_affine=True)
[tpu-job]    )
[tpu-job]    (contact_head): EsmContactPredictionHead(
[tpu-job]      (regression): Linear(in_features=1920, out_features=1, bias=True)
[tpu-job]      (activation): Sigmoid()
[tpu-job]    )
[tpu-job]  )
[tpu-job]  (lm_head): EsmLMHead(
[tpu-job]    (dense): Linear(in_features=5120, out_features=5120, bias=True)
[tpu-job]    (layer_norm): LayerNorm((5120,), eps=1e-05, elementwise_affine=True)
[tpu-job]    (decoder): Linear(in_features=5120, out_features=33, bias=False)
[tpu-job]  )
[tpu-job])>
[tpu-job]              (key): Linear(in_features=5120, out_features=5120, bias=True)
[tpu-job]              (value): Linear(in_features=5120, out_features=5120, bias=True)
[tpu-job]              (dropout): Dropout(p=0.0, inplace=False)
[tpu-job]              (rotary_embeddings): RotaryEmbedding()
[tpu-job]            )
[tpu-job]            (output): EsmSelfOutput(
[tpu-job]              (dense): Linear(in_features=5120, out_features=5120, bias=True)
[tpu-job]              (dropout): Dropout(p=0.0, inplace=False)
[tpu-job]            )
[tpu-job]            (LayerNorm): LayerNorm((5120,), eps=1e-05, elementwise_affine=True)
[tpu-job]          )
[tpu-job]          (intermediate): EsmIntermediate(
[tpu-job]            (dense): Linear(in_features=5120, out_features=20480, bias=True)
[tpu-job]          )
[tpu-job]          (output): EsmOutput(
[tpu-job]            (dense): Linear(in_features=20480, out_features=5120, bias=True)
[tpu-job]            (dropout): Dropout(p=0.0, inplace=False)
[tpu-job]          )
[tpu-job]          (LayerNorm): LayerNorm((5120,), eps=1e-05, elementwise_affine=True)
[tpu-job]        )
[tpu-job]      )
[tpu-job]      (emb_layer_norm_after): LayerNorm((5120,), eps=1e-05, elementwise_affine=True)
[tpu-job]    )
[tpu-job]    (contact_head): EsmContactPredictionHead(
[tpu-job]      (regression): Linear(in_features=1920, out_features=1, bias=True)
[tpu-job]      (activation): Sigmoid()
[tpu-job]    )
[tpu-job]  )
[tpu-job]  (lm_head): EsmLMHead(
[tpu-job]    (dense): Linear(in_features=5120, out_features=5120, bias=True)
[tpu-job]    (layer_norm): LayerNorm((5120,), eps=1e-05, elementwise_affine=True)
[tpu-job]    (decoder): Linear(in_features=5120, out_features=33, bias=False)
[tpu-job]  )
[tpu-job])>
[tpu-job]INFO:__main__:Loaded model: facebook/esm2_t48_15B_UR50D
[tpu-job]INFO:__main__:Model parameters: <bound method ModuleUtilsMixin.num_parameters of EsmForMaskedLM(
[tpu-job]  (esm): EsmModel(
[tpu-job]    (embeddings): EsmEmbeddings(
[tpu-job]      (word_embeddings): Embedding(33, 5120, padding_idx=1)
[tpu-job]      (dropout): Dropout(p=0.0, inplace=False)
[tpu-job]      (position_embeddings): Embedding(1026, 5120, padding_idx=1)
[tpu-job]    )
[tpu-job]    (encoder): EsmEncoder(
[tpu-job]      (layer): ModuleList(
[tpu-job]        (0-47): 48 x EsmLayer(
[tpu-job]          (attention): EsmAttention(
[tpu-job]            (self): EsmSelfAttention(
[tpu-job]              (query): Linear(in_features=5120, out_features=5120, bias=True)
[tpu-job]              (key): Linear(in_features=5120, out_features=5120, bias=True)
[tpu-job]              (value): Linear(in_features=5120, out_features=5120, bias=True)
[tpu-job]              (dropout): Dropout(p=0.0, inplace=False)
[tpu-job]              (rotary_embeddings): RotaryEmbedding()
[tpu-job]            )
[tpu-job]            (output): EsmSelfOutput(
[tpu-job]              (dense): Linear(in_features=5120, out_features=5120, bias=True)
[tpu-job]              (dropout): Dropout(p=0.0, inplace=False)
[tpu-job]            )
[tpu-job]            (LayerNorm): LayerNorm((5120,), eps=1e-05, elementwise_affine=True)
[tpu-job]          )
[tpu-job]          (intermediate): EsmIntermediate(
[tpu-job]            (dense): Linear(in_features=5120, out_features=20480, bias=True)
[tpu-job]          )
[tpu-job]          (output): EsmOutput(
[tpu-job]            (dense): Linear(in_features=20480, out_features=5120, bias=True)
[tpu-job]            (dropout): Dropout(p=0.0, inplace=False)
[tpu-job]          )
[tpu-job]          (LayerNorm): LayerNorm((5120,), eps=1e-05, elementwise_affine=True)
[tpu-job]        )
[tpu-job]      )
[tpu-job]      (emb_layer_norm_after): LayerNorm((5120,), eps=1e-05, elementwise_affine=True)
[tpu-job]    )
[tpu-job]    (contact_head): EsmContactPredictionHead(
[tpu-job]      (regression): Linear(in_features=1920, out_features=1, bias=True)
[tpu-job]      (activation): Sigmoid()
[tpu-job]    )
[tpu-job]  )
[tpu-job]  (lm_head): EsmLMHead(
[tpu-job]    (dense): Linear(in_features=5120, out_features=5120, bias=True)
[tpu-job]    (layer_norm): LayerNorm((5120,), eps=1e-05, elementwise_affine=True)
[tpu-job]    (decoder): Linear(in_features=5120, out_features=33, bias=False)
[tpu-job]  )
[tpu-job])>
[tpu-job]INFO:__main__:Loaded model: facebook/esm2_t48_15B_UR50D
[tpu-job]INFO:__main__:Model parameters: <bound method ModuleUtilsMixin.num_parameters of EsmForMaskedLM(
[tpu-job]  (esm): EsmModel(
[tpu-job]    (embeddings): EsmEmbeddings(
[tpu-job]      (word_embeddings): Embedding(33, 5120, padding_idx=1)
[tpu-job]      (dropout): Dropout(p=0.0, inplace=False)
[tpu-job]      (position_embeddings): Embedding(1026, 5120, padding_idx=1)
[tpu-job]    )
[tpu-job]    (encoder): EsmEncoder(
[tpu-job]      (layer): ModuleList(
[tpu-job]        (0-47): 48 x EsmLayer(
[tpu-job]          (attention): EsmAttention(
[tpu-job]            (self): EsmSelfAttention(
[tpu-job]              (query): Linear(in_features=5120, out_features=5120, bias=True)
[tpu-job]              (key): Linear(in_features=5120, out_features=5120, bias=True)
[tpu-job]              (value): Linear(in_features=5120, out_features=5120, bias=True)
[tpu-job]              (dropout): Dropout(p=0.0, inplace=False)
[tpu-job]              (rotary_embeddings): RotaryEmbedding()
[tpu-job]            )
[tpu-job]            (output): EsmSelfOutput(
[tpu-job]              (dense): Linear(in_features=5120, out_features=5120, bias=True)
[tpu-job]              (dropout): Dropout(p=0.0, inplace=False)
[tpu-job]            )
[tpu-job]            (LayerNorm): LayerNorm((5120,), eps=1e-05, elementwise_affine=True)
[tpu-job]          )
[tpu-job]          (intermediate): EsmIntermediate(
[tpu-job]            (dense): Linear(in_features=5120, out_features=20480, bias=True)
[tpu-job]          )
[tpu-job]          (output): EsmOutput(
[tpu-job]            (dense): Linear(in_features=20480, out_features=5120, bias=True)
[tpu-job]            (dropout): Dropout(p=0.0, inplace=False)
[tpu-job]          )
[tpu-job]          (LayerNorm): LayerNorm((5120,), eps=1e-05, elementwise_affine=True)
[tpu-job]        )
[tpu-job]      )
[tpu-job]      (emb_layer_norm_after): LayerNorm((5120,), eps=1e-05, elementwise_affine=True)
[tpu-job]    )
[tpu-job]    (contact_head): EsmContactPredictionHead(
[tpu-job]      (regression): Linear(in_features=1920, out_features=1, bias=True)
[tpu-job]      (activation): Sigmoid()
[tpu-job]    )
[tpu-job]  )
[tpu-job]  (lm_head): EsmLMHead(
[tpu-job]    (dense): Linear(in_features=5120, out_features=5120, bias=True)
[tpu-job]    (layer_norm): LayerNorm((5120,), eps=1e-05, elementwise_affine=True)
[tpu-job]    (decoder): Linear(in_features=5120, out_features=33, bias=False)
[tpu-job]  )
[tpu-job])>
[tpu-job]INFO:__main__:Loaded model: facebook/esm2_t48_15B_UR50D
[tpu-job]INFO:__main__:Model parameters: <bound method ModuleUtilsMixin.num_parameters of EsmForMaskedLM(
[tpu-job]  (esm): EsmModel(
[tpu-job]    (embeddings): EsmEmbeddings(
[tpu-job]      (word_embeddings): Embedding(33, 5120, padding_idx=1)
[tpu-job]      (dropout): Dropout(p=0.0, inplace=False)
[tpu-job]      (position_embeddings): Embedding(1026, 5120, padding_idx=1)
[tpu-job]    )
[tpu-job]    (encoder): EsmEncoder(
[tpu-job]      (layer): ModuleList(
[tpu-job]        (0-47): 48 x EsmLayer(
[tpu-job]          (attention): EsmAttention(
[tpu-job]            (self): EsmSelfAttention(
[tpu-job]              (query): Linear(in_features=5120, out_features=5120, bias=True)
[tpu-job]              (key): Linear(in_features=5120, out_features=5120, bias=True)
[tpu-job]              (value): Linear(in_features=5120, out_features=5120, bias=True)
[tpu-job]              (dropout): Dropout(p=0.0, inplace=False)
[tpu-job]              (rotary_embeddings): RotaryEmbedding()
[tpu-job]            )
[tpu-job]            (output): EsmSelfOutput(
[tpu-job]              (dense): Linear(in_features=5120, out_features=5120, bias=True)
[tpu-job]              (dropout): Dropout(p=0.0, inplace=False)
[tpu-job]            )
[tpu-job]            (LayerNorm): LayerNorm((5120,), eps=1e-05, elementwise_affine=True)
[tpu-job]          )
[tpu-job]          (intermediate): EsmIntermediate(
[tpu-job]            (dense): Linear(in_features=5120, out_features=20480, bias=True)
[tpu-job]          )
[tpu-job]          (output): EsmOutput(
[tpu-job]            (dense): Linear(in_features=20480, out_features=5120, bias=True)
[tpu-job]            (dropout): Dropout(p=0.0, inplace=False)
[tpu-job]          )
[tpu-job]          (LayerNorm): LayerNorm((5120,), eps=1e-05, elementwise_affine=True)
[tpu-job]        )
[tpu-job]      )
[tpu-job]      (emb_layer_norm_after): LayerNorm((5120,), eps=1e-05, elementwise_affine=True)
[tpu-job]    )
[tpu-job]    (contact_head): EsmContactPredictionHead(
[tpu-job]      (regression): Linear(in_features=1920, out_features=1, bias=True)
[tpu-job]      (activation): Sigmoid()
[tpu-job]    )
[tpu-job]  )
[tpu-job]  (lm_head): EsmLMHead(
[tpu-job]    (dense): Linear(in_features=5120, out_features=5120, bias=True)
[tpu-job]    (layer_norm): LayerNorm((5120,), eps=1e-05, elementwise_affine=True)
[tpu-job]    (decoder): Linear(in_features=5120, out_features=33, bias=False)
[tpu-job]  )
[tpu-job])>
[tpu-job]INFO:__main__:Logical mesh shape: OrderedDict([('fsdp', 256), ('tensor', 1)])
[tpu-job]INFO:__main__:Input sharding: ShardingSpec(mesh=<torch_xla.distributed.spmd.xla_sharding.Mesh object at 0x7bd06a79bb90>, partition_spec=('fsdp', None), minibatch=False, _tile_assignment=[[0], [1], [2], [3], [4], [5], [6], [7], [8], 
…
[tpu-job]INFO:__main__:ESM2 classes to wrap: {<class 'transformers.models.esm.modeling_esm.EsmLMHead'>, <class 'transformers.models.esm.modeling_esm.EsmOutput'>, <class 'transformers.models.esm.modeling_esm.EsmSelfOutput'>, <class 'transformers.models.esm.modeling_esm.EsmSelfAttention'>, <class 'transformers.models.esm.modeling_esm.EsmIntermediate'>, <class 'transformers.models.esm.modeling_esm.EsmEmbeddings'>}
[tpu-job]INFO:__main__:Enabling gradient checkpointing
[tpu-job]INFO:__main__:Loaded model: facebook/esm2_t48_15B_UR50D
[tpu-job]INFO:__main__:Model parameters: <bound method ModuleUtilsMixin.num_parameters of EsmForMaskedLM(
[tpu-job]  (esm): EsmModel(
[tpu-job]    (embeddings): EsmEmbeddings(
[tpu-job]      (word_embeddings): Embedding(33, 5120, padding_idx=1)
[tpu-job]      (dropout): Dropout(p=0.0, inplace=False)
[tpu-job]      (position_embeddings): Embedding(1026, 5120, padding_idx=1)
[tpu-job]    )
[tpu-job]    (encoder): EsmEncoder(
[tpu-job]      (layer): ModuleList(
[tpu-job]        (0-47): 48 x EsmLayer(
[tpu-job]          (attention): EsmAttention(
[tpu-job]            (self): EsmSelfAttention(
[tpu-job]              (query): Linear(in_features=5120, out_features=5120, bias=True)
[tpu-job]              (key): Linear(in_features=5120, out_features=5120, bias=True)
[tpu-job]              (value): Linear(in_features=5120, out_features=5120, bias=True)
[tpu-job]              (dropout): Dropout(p=0.0, inplace=False)
[tpu-job]              (rotary_embeddings): RotaryEmbedding()
[tpu-job]            )
[tpu-job]            (output): EsmSelfOutput(
[tpu-job]              (dense): Linear(in_features=5120, out_features=5120, bias=True)
[tpu-job]              (dropout): Dropout(p=0.0, inplace=False)
[tpu-job]            )
[tpu-job]            (LayerNorm): LayerNorm((5120,), eps=1e-05, elementwise_affine=True)
[tpu-job]          )
[tpu-job]          (intermediate): EsmIntermediate(
[tpu-job]            (dense): Linear(in_features=5120, out_features=20480, bias=True)
[tpu-job]          )
[tpu-job]          (output): EsmOutput(
[tpu-job]            (dense): Linear(in_features=20480, out_features=5120, bias=True)
[tpu-job]            (dropout): Dropout(p=0.0, inplace=False)
[tpu-job]          )
[tpu-job]          (LayerNorm): LayerNorm((5120,), eps=1e-05, elementwise_affine=True)
[tpu-job]        )
[tpu-job]      )
[tpu-job]      (emb_layer_norm_after): LayerNorm((5120,), eps=1e-05, elementwise_affine=True)
[tpu-job]    )
[tpu-job]    (contact_head): EsmContactPredictionHead(
[tpu-job]      (regression): Linear(in_features=1920, out_features=1, bias=True)
[tpu-job]      (activation): Sigmoid()
[tpu-job]    )
[tpu-job]  )
[tpu-job]  (lm_head): EsmLMHead(
[tpu-job]    (dense): Linear(in_features=5120, out_features=5120, bias=True)
[tpu-job]    (layer_norm): LayerNorm((5120,), eps=1e-05, elementwise_affine=True)
[tpu-job]    (decoder): Linear(in_features=5120, out_features=33, bias=False)
[tpu-job]  )
[tpu-job])>
[tpu-job]INFO:__main__:Loaded model: facebook/esm2_t48_15B_UR50D
[tpu-job]INFO:__main__:Model parameters: <bound method ModuleUtilsMixin.num_parameters of EsmForMaskedLM(
[tpu-job]  (esm): EsmModel(
[tpu-job]    (embeddings): EsmEmbeddings(
[tpu-job]      (word_embeddings): Embedding(33, 5120, padding_idx=1)
[tpu-job]      (dropout): Dropout(p=0.0, inplace=False)
[tpu-job]      (position_embeddings): Embedding(1026, 5120, padding_idx=1)
[tpu-job]    )
[tpu-job]    (encoder): EsmEncoder(
[tpu-job]      (layer): ModuleList(
[tpu-job]        (0-47): 48 x EsmLayer(
[tpu-job]          (attention): EsmAttention(
[tpu-job]            (self): EsmSelfAttention(
[tpu-job]              (query): Linear(in_features=5120, out_features=5120, bias=True)
[tpu-job]              (key): Linear(in_features=5120, out_features=5120, bias=True)
[tpu-job]              (value): Linear(in_features=5120, out_features=5120, bias=True)
[tpu-job]              (dropout): Dropout(p=0.0, inplace=False)
[tpu-job]              (rotary_embeddings): RotaryEmbedding()
[tpu-job]            )
[tpu-job]            (output): EsmSelfOutput(
[tpu-job]              (dense): Linear(in_features=5120, out_features=5120, bias=True)
[tpu-job]              (dropout): Dropout(p=0.0, inplace=False)
[tpu-job]            )
[tpu-job]            (LayerNorm): LayerNorm((5120,), eps=1e-05, elementwise_affine=True)
[tpu-job]          )
[tpu-job]          (intermediate): EsmIntermediate(
[tpu-job]            (dense): Linear(in_features=5120, out_features=20480, bias=True)
[tpu-job]          )
[tpu-job]          (output): EsmOutput(
[tpu-job]            (dense): Linear(in_features=20480, out_features=5120, bias=True)
[tpu-job]            (dropout): Dropout(p=0.0, inplace=False)
[tpu-job]          )
[tpu-job]          (LayerNorm): LayerNorm((5120,), eps=1e-05, elementwise_affine=True)
[tpu-job]        )
[tpu-job]      )
[tpu-job]      (emb_layer_norm_after): LayerNorm((5120,), eps=1e-05, elementwise_affine=True)
[tpu-job]    )
[tpu-job]    (contact_head): EsmContactPredictionHead(
[tpu-job]      (regression): Linear(in_features=1920, out_features=1, bias=True)
[tpu-job]      (activation): Sigmoid()
[tpu-job]    )
[tpu-job]  )
[tpu-job]  (lm_head): EsmLMHead(
[tpu-job]    (dense): Linear(in_features=5120, out_features=5120, bias=True)
[tpu-job]    (layer_norm): LayerNorm((5120,), eps=1e-05, elementwise_affine=True)
[tpu-job]    (decoder): Linear(in_features=5120, out_features=33, bias=False)
[tpu-job]  )
[tpu-job])>
[tpu-job]INFO:__main__:Loaded model: facebook/esm2_t48_15B_UR50D
[tpu-job]INFO:__main__:Model parameters: <bound method ModuleUtilsMixin.num_parameters of EsmForMaskedLM(
[tpu-job]  (esm): EsmModel(
[tpu-job]    (embeddings): EsmEmbeddings(
[tpu-job]      (word_embeddings): Embedding(33, 5120, padding_idx=1)
[tpu-job]      (dropout): Dropout(p=0.0, inplace=False)
[tpu-job]      (position_embeddings): Embedding(1026, 5120, padding_idx=1)
[tpu-job]    )
[tpu-job]    (encoder): EsmEncoder(
[tpu-job]      (layer): ModuleList(
[tpu-job]        (0-47): 48 x EsmLayer(
[tpu-job]          (attention): EsmAttention(
[tpu-job]            (self): EsmSelfAttention(
[tpu-job]              (query): Linear(in_features=5120, out_features=5120, bias=True)
[tpu-job]              (key): Linear(in_features=5120, out_features=5120, bias=True)
[tpu-job]              (value): Linear(in_features=5120, out_features=5120, bias=True)
[tpu-job]              (dropout): Dropout(p=0.0, inplace=False)
[tpu-job]              (rotary_embeddings): RotaryEmbedding()
[tpu-job]            )
[tpu-job]            (output): EsmSelfOutput(
[tpu-job]              (dense): Linear(in_features=5120, out_features=5120, bias=True)
[tpu-job]              (dropout): Dropout(p=0.0, inplace=False)
[tpu-job]            )
[tpu-job]            (LayerNorm): LayerNorm((5120,), eps=1e-05, elementwise_affine=True)
[tpu-job]          )
[tpu-job]          (intermediate): EsmIntermediate(
[tpu-job]            (dense): Linear(in_features=5120, out_features=20480, bias=True)
[tpu-job]          )
[tpu-job]          (output): EsmOutput(
[tpu-job]            (dense): Linear(in_features=20480, out_features=5120, bias=True)
[tpu-job]            (dropout): Dropout(p=0.0, inplace=False)
[tpu-job]          )
[tpu-job]          (LayerNorm): LayerNorm((5120,), eps=1e-05, elementwise_affine=True)
[tpu-job]        )
[tpu-job]      )
[tpu-job]      (emb_layer_norm_after): LayerNorm((5120,), eps=1e-05, elementwise_affine=True)
[tpu-job]    )
[tpu-job]    (contact_head): EsmContactPredictionHead(
[tpu-job]      (regression): Linear(in_features=1920, out_features=1, bias=True)
[tpu-job]      (activation): Sigmoid()
[tpu-job]    )
[tpu-job]  )
[tpu-job]  (lm_head): EsmLMHead(
[tpu-job]    (dense): Linear(in_features=5120, out_features=5120, bias=True)
[tpu-job]    (layer_norm): LayerNorm((5120,), eps=1e-05, elementwise_affine=True)
[tpu-job]    (decoder): Linear(in_features=5120, out_features=33, bias=False)
[tpu-job]  )
[tpu-job])>
[tpu-job]INFO:__main__:Loaded model: facebook/esm2_t48_15B_UR50D
[tpu-job]INFO:__main__:Model parameters: <bound method ModuleUtilsMixin.num_parameters of EsmForMaskedLM(
[tpu-job]  (esm): EsmModel(
[tpu-job]    (embeddings): EsmEmbeddings(
[tpu-job]      (word_embeddings): Embedding(33, 5120, padding_idx=1)
[tpu-job]      (dropout): Dropout(p=0.0, inplace=False)
[tpu-job]      (position_embeddings): Embedding(1026, 5120, padding_idx=1)
[tpu-job]    )
[tpu-job]    (encoder): EsmEncoder(
[tpu-job]      (layer): ModuleList(
[tpu-job]        (0-47): 48 x EsmLayer(
[tpu-job]          (attention): EsmAttention(
[tpu-job]            (self): EsmSelfAttention(
[tpu-job]              (query): Linear(in_features=5120, out_features=5120, bias=True)
[tpu-job]              (key): Linear(in_features=5120, out_features=5120, bias=True)
[tpu-job]              (value): Linear(in_features=5120, out_features=5120, bias=True)
[tpu-job]              (dropout): Dropout(p=0.0, inplace=False)
[tpu-job]              (rotary_embeddings): RotaryEmbedding()
[tpu-job]            )
[tpu-job]            (output): EsmSelfOutput(
[tpu-job]              (dense): Linear(in_features=5120, out_features=5120, bias=True)
[tpu-job]              (dropout): Dropout(p=0.0, inplace=False)
[tpu-job]            )
[tpu-job]            (LayerNorm): LayerNorm((5120,), eps=1e-05, elementwise_affine=True)
[tpu-job]          )
[tpu-job]          (intermediate): EsmIntermediate(
[tpu-job]            (dense): Linear(in_features=5120, out_features=20480, bias=True)
[tpu-job]          )
[tpu-job]          (output): EsmOutput(
[tpu-job]            (dense): Linear(in_features=20480, out_features=5120, bias=True)
[tpu-job]            (dropout): Dropout(p=0.0, inplace=False)
[tpu-job]          )
[tpu-job]          (LayerNorm): LayerNorm((5120,), eps=1e-05, elementwise_affine=True)
[tpu-job]        )
[tpu-job]      )
[tpu-job]      (emb_layer_norm_after): LayerNorm((5120,), eps=1e-05, elementwise_affine=True)
[tpu-job]    )
[tpu-job]    (contact_head): EsmContactPredictionHead(
[tpu-job]      (regression): Linear(in_features=1920, out_features=1, bias=True)
[tpu-job]      (activation): Sigmoid()
[tpu-job]    )
[tpu-job]  )
[tpu-job]  (lm_head): EsmLMHead(
[tpu-job]    (dense): Linear(in_features=5120, out_features=5120, bias=True)
[tpu-job]    (layer_norm): LayerNorm((5120,), eps=1e-05, elementwise_affine=True)
[tpu-job]    (decoder): Linear(in_features=5120, out_features=33, bias=False)
[tpu-job]  )
[tpu-job])>
[tpu-job]INFO:__main__:Loaded model: facebook/esm2_t48_15B_UR50D
[tpu-job]INFO:__main__:Model parameters: <bound method ModuleUtilsMixin.num_parameters of EsmForMaskedLM(
[tpu-job]  (esm): EsmModel(
[tpu-job]    (embeddings): EsmEmbeddings(
[tpu-job]      (word_embeddings): Embedding(33, 5120, padding_idx=1)
[tpu-job]      (dropout): Dropout(p=0.0, inplace=False)
[tpu-job]      (position_embeddings): Embedding(1026, 5120, padding_idx=1)
[tpu-job]    )
[tpu-job]    (encoder): EsmEncoder(
[tpu-job]      (layer): ModuleList(
[tpu-job]        (0-47): 48 x EsmLayer(
[tpu-job]          (attention): EsmAttention(
[tpu-job]            (self): EsmSelfAttention(
[tpu-job]              (query): Linear(in_features=5120, out_features=5120, bias=True)
[tpu-job]              (key): Linear(in_features=5120, out_features=5120, bias=True)
[tpu-job]              (value): Linear(in_features=5120, out_features=5120, bias=True)
[tpu-job]              (dropout): Dropout(p=0.0, inplace=False)
[tpu-job]              (rotary_embeddings): RotaryEmbedding()
[tpu-job]            )
[tpu-job]            (output): EsmSelfOutput(
[tpu-job]              (dense): Linear(in_features=5120, out_features=5120, bias=True)
[tpu-job]              (dropout): Dropout(p=0.0, inplace=False)
[tpu-job]            )
[tpu-job]            (LayerNorm): LayerNorm((5120,), eps=1e-05, elementwise_affine=True)
[tpu-job]          )
[tpu-job]          (intermediate): EsmIntermediate(
[tpu-job]            (dense): Linear(in_features=5120, out_features=20480, bias=True)
[tpu-job]          )
[tpu-job]          (output): EsmOutput(
[tpu-job]            (dense): Linear(in_features=20480, out_features=5120, bias=True)
[tpu-job]            (dropout): Dropout(p=0.0, inplace=False)
[tpu-job]          )
[tpu-job]          (LayerNorm): LayerNorm((5120,), eps=1e-05, elementwise_affine=True)
[tpu-job]        )
[tpu-job]      )
[tpu-job]      (emb_layer_norm_after): LayerNorm((5120,), eps=1e-05, elementwise_affine=True)
[tpu-job]    )
[tpu-job]    (contact_head): EsmContactPredictionHead(
[tpu-job]      (regression): Linear(in_features=1920, out_features=1, bias=True)
[tpu-job]      (activation): Sigmoid()
[tpu-job]    )
[tpu-job]  )
[tpu-job]  (lm_head): EsmLMHead(
[tpu-job]    (dense): Linear(in_features=5120, out_features=5120, bias=True)
[tpu-job]    (layer_norm): LayerNorm((5120,), eps=1e-05, elementwise_affine=True)
[tpu-job]    (decoder): Linear(in_features=5120, out_features=33, bias=False)
[tpu-job]  )
[tpu-job])>
[tpu-job]INFO:__main__:Loaded model: facebook/esm2_t48_15B_UR50D
[tpu-job]INFO:__main__:Model parameters: <bound method ModuleUtilsMixin.num_parameters of EsmForMaskedLM(
[tpu-job]  (esm): EsmModel(
[tpu-job]    (embeddings): EsmEmbeddings(
[tpu-job]      (word_embeddings): Embedding(33, 5120, padding_idx=1)
[tpu-job]      (dropout): Dropout(p=0.0, inplace=False)
[tpu-job]      (position_embeddings): Embedding(1026, 5120, padding_idx=1)
[tpu-job]    )
[tpu-job]    (encoder): EsmEncoder(
[tpu-job]      (layer): ModuleList(
[tpu-job]        (0-47): 48 x EsmLayer(
[tpu-job]          (attention): EsmAttention(
[tpu-job]            (self): EsmSelfAttention(
[tpu-job]              (query): Linear(in_features=5120, out_features=5120, bias=True)
[tpu-job]              (key): Linear(in_features=5120, out_features=5120, bias=True)
[tpu-job]              (value): Linear(in_features=5120, out_features=5120, bias=True)
[tpu-job]              (dropout): Dropout(p=0.0, inplace=False)
[tpu-job]              (rotary_embeddings): RotaryEmbedding()
[tpu-job]            )
[tpu-job]            (output): EsmSelfOutput(
[tpu-job]              (dense): Linear(in_features=5120, out_features=5120, bias=True)
[tpu-job]              (dropout): Dropout(p=0.0, inplace=False)
[tpu-job]            )
[tpu-job]            (LayerNorm): LayerNorm((5120,), eps=1e-05, elementwise_affine=True)
[tpu-job]          )
[tpu-job]          (intermediate): EsmIntermediate(
[tpu-job]            (dense): Linear(in_features=5120, out_features=20480, bias=True)
[tpu-job]          )
[tpu-job]          (output): EsmOutput(
[tpu-job]            (dense): Linear(in_features=20480, out_features=5120, bias=True)
[tpu-job]            (dropout): Dropout(p=0.0, inplace=False)
[tpu-job]          )
[tpu-job]          (LayerNorm): LayerNorm((5120,), eps=1e-05, elementwise_affine=True)
[tpu-job]        )
[tpu-job]      )
[tpu-job]      (emb_layer_norm_after): LayerNorm((5120,), eps=1e-05, elementwise_affine=True)
[tpu-job]    )
[tpu-job]    (contact_head): EsmContactPredictionHead(
[tpu-job]      (regression): Linear(in_features=1920, out_features=1, bias=True)
[tpu-job]      (activation): Sigmoid()
[tpu-job]    )
[tpu-job]  )
[tpu-job]  (lm_head): EsmLMHead(
[tpu-job]    (dense): Linear(in_features=5120, out_features=5120, bias=True)
[tpu-job]    (layer_norm): LayerNorm((5120,), eps=1e-05, elementwise_affine=True)
[tpu-job]    (decoder): Linear(in_features=5120, out_features=33, bias=False)
[tpu-job]  )
[tpu-job])>
[tpu-job]INFO:__main__:Logical mesh shape: OrderedDict([('fsdp', 256), ('tensor', 1)])
[tpu-job]INFO:__main__:Input sharding: ShardingSpec(mesh=<torch_xla.distributed.spmd.xla_sharding.Mesh object at 0x7a372d3f8090>, partition_spec=('fsdp', None), minibatch=False, _tile_assignment=[[0], [1], [2], [3], [4], [5], [6], [7], [8], 
…
[tpu-job]INFO:__main__:ESM2 classes to wrap: {<class 'transformers.models.esm.modeling_esm.EsmLMHead'>, <class 'transformers.models.esm.modeling_esm.EsmSelfOutput'>, <class 'transformers.models.esm.modeling_esm.EsmIntermediate'>, <class 'transformers.models.esm.modeling_esm.EsmSelfAttention'>, <class 'transformers.models.esm.modeling_esm.EsmEmbeddings'>, <class 'transformers.models.esm.modeling_esm.EsmOutput'>}
[tpu-job]INFO:__main__:Enabling gradient checkpointing
[tpu-job]INFO:__main__:Loaded model: facebook/esm2_t48_15B_UR50D
[tpu-job]INFO:__main__:Model parameters: <bound method ModuleUtilsMixin.num_parameters of EsmForMaskedLM(
[tpu-job]  (esm): EsmModel(
[tpu-job]    (embeddings): EsmEmbeddings(
[tpu-job]      (word_embeddings): Embedding(33, 5120, padding_idx=1)
[tpu-job]      (dropout): Dropout(p=0.0, inplace=False)
[tpu-job]      (position_embeddings): Embedding(1026, 5120, padding_idx=1)
[tpu-job]    )
[tpu-job]    (encoder): EsmEncoder(
[tpu-job]      (layer): ModuleList(
[tpu-job]        (0-47): 48 x EsmLayer(
[tpu-job]          (attention): EsmAttention(
[tpu-job]            (self): EsmSelfAttention(
[tpu-job]              (query): Linear(in_features=5120, out_features=5120, bias=True)
[tpu-job]              (key): Linear(in_features=5120, out_features=5120, bias=True)
[tpu-job]              (value): Linear(in_features=5120, out_features=5120, bias=True)
[tpu-job]              (dropout): Dropout(p=0.0, inplace=False)
[tpu-job]              (rotary_embeddings): RotaryEmbedding()
[tpu-job]            )
[tpu-job]            (output): EsmSelfOutput(
[tpu-job]              (dense): Linear(in_features=5120, out_features=5120, bias=True)
[tpu-job]              (dropout): Dropout(p=0.0, inplace=False)
[tpu-job]            )
[tpu-job]            (LayerNorm): LayerNorm((5120,), eps=1e-05, elementwise_affine=True)
[tpu-job]          )
[tpu-job]          (intermediate): EsmIntermediate(
[tpu-job]            (dense): Linear(in_features=5120, out_features=20480, bias=True)
[tpu-job]          )
[tpu-job]          (output): EsmOutput(
[tpu-job]            (dense): Linear(in_features=20480, out_features=5120, bias=True)
[tpu-job]            (dropout): Dropout(p=0.0, inplace=False)
[tpu-job]          )
[tpu-job]          (LayerNorm): LayerNorm((5120,), eps=1e-05, elementwise_affine=True)
[tpu-job]        )
[tpu-job]      )
[tpu-job]      (emb_layer_norm_after): LayerNorm((5120,), eps=1e-05, elementwise_affine=True)
[tpu-job]    )
[tpu-job]    (contact_head): EsmContactPredictionHead(
[tpu-job]      (regression): Linear(in_features=1920, out_features=1, bias=True)
[tpu-job]      (activation): Sigmoid()
[tpu-job]    )
[tpu-job]  )
[tpu-job]  (lm_head): EsmLMHead(
[tpu-job]    (dense): Linear(in_features=5120, out_features=5120, bias=True)
[tpu-job]    (layer_norm): LayerNorm((5120,), eps=1e-05, elementwise_affine=True)
[tpu-job]    (decoder): Linear(in_features=5120, out_features=33, bias=False)
[tpu-job]  )
[tpu-job])>
[tpu-job]INFO:__main__:Loaded model: facebook/esm2_t48_15B_UR50D
[tpu-job]INFO:__main__:Model parameters: <bound method ModuleUtilsMixin.num_parameters of EsmForMaskedLM(
[tpu-job]  (esm): EsmModel(
[tpu-job]    (embeddings): EsmEmbeddings(
[tpu-job]      (word_embeddings): Embedding(33, 5120, padding_idx=1)
[tpu-job]      (dropout): Dropout(p=0.0, inplace=False)
[tpu-job]      (position_embeddings): Embedding(1026, 5120, padding_idx=1)
[tpu-job]    )
[tpu-job]    (encoder): EsmEncoder(
[tpu-job]      (layer): ModuleList(
[tpu-job]        (0-47): 48 x EsmLayer(
[tpu-job]          (attention): EsmAttention(
[tpu-job]            (self): EsmSelfAttention(
[tpu-job]              (query): Linear(in_features=5120, out_features=5120, bias=True)
[tpu-job]              (key): Linear(in_features=5120, out_features=5120, bias=True)
[tpu-job]              (value): Linear(in_features=5120, out_features=5120, bias=True)
[tpu-job]              (dropout): Dropout(p=0.0, inplace=False)
[tpu-job]              (rotary_embeddings): RotaryEmbedding()
[tpu-job]            )
[tpu-job]            (output): EsmSelfOutput(
[tpu-job]              (dense): Linear(in_features=5120, out_features=5120, bias=True)
[tpu-job]              (dropout): Dropout(p=0.0, inplace=False)
[tpu-job]            )
[tpu-job]            (LayerNorm): LayerNorm((5120,), eps=1e-05, elementwise_affine=True)
[tpu-job]          )
[tpu-job]          (intermediate): EsmIntermediate(
[tpu-job]            (dense): Linear(in_features=5120, out_features=20480, bias=True)
[tpu-job]          )
[tpu-job]          (output): EsmOutput(
[tpu-job]            (dense): Linear(in_features=20480, out_features=5120, bias=True)
[tpu-job]            (dropout): Dropout(p=0.0, inplace=False)
[tpu-job]          )
[tpu-job]          (LayerNorm): LayerNorm((5120,), eps=1e-05, elementwise_affine=True)
[tpu-job]        )
[tpu-job]      )
[tpu-job]      (emb_layer_norm_after): LayerNorm((5120,), eps=1e-05, elementwise_affine=True)
[tpu-job]    )
[tpu-job]    (contact_head): EsmContactPredictionHead(
[tpu-job]      (regression): Linear(in_features=1920, out_features=1, bias=True)
[tpu-job]      (activation): Sigmoid()
[tpu-job]    )
[tpu-job]  )
[tpu-job]  (lm_head): EsmLMHead(
[tpu-job]    (dense): Linear(in_features=5120, out_features=5120, bias=True)
[tpu-job]    (layer_norm): LayerNorm((5120,), eps=1e-05, elementwise_affine=True)
[tpu-job]    (decoder): Linear(in_features=5120, out_features=33, bias=False)
[tpu-job]  )
[tpu-job])>
[tpu-job]INFO:__main__:Loaded model: facebook/esm2_t48_15B_UR50D
[tpu-job]INFO:__main__:Model parameters: <bound method ModuleUtilsMixin.num_parameters of EsmForMaskedLM(
[tpu-job]  (esm): EsmModel(
[tpu-job]    (embeddings): EsmEmbeddings(
[tpu-job]      (word_embeddings): Embedding(33, 5120, padding_idx=1)
[tpu-job]      (dropout): Dropout(p=0.0, inplace=False)
[tpu-job]      (position_embeddings): Embedding(1026, 5120, padding_idx=1)
[tpu-job]    )
[tpu-job]    (encoder): EsmEncoder(
[tpu-job]      (layer): ModuleList(
[tpu-job]        (0-47): 48 x EsmLayer(
[tpu-job]          (attention): EsmAttention(
[tpu-job]            (self): EsmSelfAttention(
[tpu-job]              (query): Linear(in_features=5120, out_features=5120, bias=True)
[tpu-job]              (key): Linear(in_features=5120, out_features=5120, bias=True)
[tpu-job]              (value): Linear(in_features=5120, out_features=5120, bias=True)
[tpu-job]              (dropout): Dropout(p=0.0, inplace=False)
[tpu-job]              (rotary_embeddings): RotaryEmbedding()
[tpu-job]            )
[tpu-job]            (output): EsmSelfOutput(
[tpu-job]              (dense): Linear(in_features=5120, out_features=5120, bias=True)
[tpu-job]              (dropout): Dropout(p=0.0, inplace=False)
[tpu-job]            )
[tpu-job]            (LayerNorm): LayerNorm((5120,), eps=1e-05, elementwise_affine=True)
[tpu-job]          )
[tpu-job]          (intermediate): EsmIntermediate(
[tpu-job]            (dense): Linear(in_features=5120, out_features=20480, bias=True)
[tpu-job]          )
[tpu-job]          (output): EsmOutput(
[tpu-job]            (dense): Linear(in_features=20480, out_features=5120, bias=True)
[tpu-job]            (dropout): Dropout(p=0.0, inplace=False)
[tpu-job]          )
[tpu-job]          (LayerNorm): LayerNorm((5120,), eps=1e-05, elementwise_affine=True)
[tpu-job]        )
[tpu-job]      )
[tpu-job]      (emb_layer_norm_after): LayerNorm((5120,), eps=1e-05, elementwise_affine=True)
[tpu-job]    )
[tpu-job]    (contact_head): EsmContactPredictionHead(
[tpu-job]      (regression): Linear(in_features=1920, out_features=1, bias=True)
[tpu-job]      (activation): Sigmoid()
[tpu-job]    )
[tpu-job]  )
[tpu-job]  (lm_head): EsmLMHead(
[tpu-job]    (dense): Linear(in_features=5120, out_features=5120, bias=True)
[tpu-job]    (layer_norm): LayerNorm((5120,), eps=1e-05, elementwise_affine=True)
[tpu-job]    (decoder): Linear(in_features=5120, out_features=33, bias=False)
[tpu-job]  )
[tpu-job])>
[tpu-job]INFO:__main__:Logical mesh shape: OrderedDict([('fsdp', 256), ('tensor', 1)])
[tpu-job]INFO:__main__:Input sharding: ShardingSpec(mesh=<torch_xla.distributed.spmd.xla_sharding.Mesh object at 0x7cf91df538d0>, partition_spec=('fsdp', None), minibatch=False, _tile_assignment=[[0], [1], [2], [3], [4], [5], [6], [7], [8], 
…
