…
  "layer_norm_eps": 1e-05,
  "mask_token_id": 32,
  "max_position_embeddings": 1026,
  "model_type": "esm",
  "num_attention_heads": 40,
  "num_hidden_layers": 48,
  "pad_token_id": 1,
  "position_embedding_type": "rotary",
  "token_dropout": true,
  "torch_dtype": "bfloat16",
  "transformers_version": "4.40.0.dev0",
  "use_cache": true,
  "vocab_list": null,
  "vocab_size": 33
}

INFO:__main__:Loaded model: facebook/esm2_t48_15B_UR50D
INFO:__main__:Model parameters: <bound method ModuleUtilsMixin.num_parameters of EsmForMaskedLM(
  (esm): EsmModel(
    (embeddings): EsmEmbeddings(
      (word_embeddings): Embedding(33, 5120, padding_idx=1)
      (dropout): Dropout(p=0.0, inplace=False)
      (position_embeddings): Embedding(1026, 5120, padding_idx=1)
    )
    (encoder): EsmEncoder(
      (layer): ModuleList(
        (0-47): 48 x EsmLayer(
          (attention): EsmAttention(
            (self): EsmSelfAttention(
              (query): Linear(in_features=5120, out_features=5120, bias=True)
              (key): Linear(in_features=5120, out_features=5120, bias=True)
              (value): Linear(in_features=5120, out_features=5120, bias=True)
              (dropout): Dropout(p=0.0, inplace=False)
              (rotary_embeddings): RotaryEmbedding()
            )
            (output): EsmSelfOutput(
              (dense): Linear(in_features=5120, out_features=5120, bias=True)
              (dropout): Dropout(p=0.0, inplace=False)
            )
            (LayerNorm): LayerNorm((5120,), eps=1e-05, elementwise_affine=True)
          )
          (intermediate): EsmIntermediate(
            (dense): Linear(in_features=5120, out_features=20480, bias=True)
          )
          (output): EsmOutput(
            (dense): Linear(in_features=20480, out_features=5120, bias=True)
            (dropout): Dropout(p=0.0, inplace=False)
          )
          (LayerNorm): LayerNorm((5120,), eps=1e-05, elementwise_affine=True)
        )
      )
      (emb_layer_norm_after): LayerNorm((5120,), eps=1e-05, elementwise_affine=True)
    )
    (contact_head): EsmContactPredictionHead(
      (regression): Linear(in_features=1920, out_features=1, bias=True)
      (activation): Sigmoid()
    )
  )
  (lm_head): EsmLMHead(
    (dense): Linear(in_features=5120, out_features=5120, bias=True)
    (layer_norm): LayerNorm((5120,), eps=1e-05, elementwise_affine=True)
    (decoder): Linear(in_features=5120, out_features=33, bias=False)
  )
)>
INFO:__main__:Logical mesh shape: OrderedDict([('fsdp', 256), ('tensor', 1)])
INFO:__main__:Input sharding: ShardingSpec(mesh=<torch_xla.distributed.spmd.xla_sharding.Mesh object at 0x7e6822c4f810>, partition_spec=('fsdp', None), minibatch=False, _tile_assignment=[[0], [1], [2], [3], [4], [5], [6], [7], [8], [9], [10], [11], [12], [13], [14], [
…
